Netz - Kopie.pt (torch_old, 123633 bytes, 4 tensors)

weight f4 [128, 184]
0	0xbd3beedc	-0.04588209
1	0x3c9b5d51	0.018965395
2	0x3be37051	0.0069408794
3	0xbd8d1c7a	-0.06890197
4	0xbb6a42f5	-0.0035745476
5	0x3cc7abda	0.024373937
6	0xbaf360b2	-0.0018568246
7	0x3cda42e1	0.026643218
8	0xbd15fd7b	-0.03661869
9	0x3d4032cc	0.046923444
10	0x3cdf9a18	0.027295157
11	0x3cb1428a	0.021638174
12	0xbcad42bf	-0.021149991
13	0xbd7a85fc	-0.061162934
14	0xbcf1301e	-0.02944189
15	0xbd1992fb	-0.037493687
16	0xbb291600	-0.0025800467
17	0x3ccb46c3	0.024814015
18	0x3c9e4aba	0.019322742
19	0x3bf20c23	0.0073867007
20	0xbd222332	-0.039584346
21	0xbcd9b7b4	-0.026576854
22	0x3d742008	0.05960086
23	0xbcfd1dfe	-0.03089809
24	0xbcda6800	-0.02666092
25	0xbc2e50e8	-0.010639407
26	0x3d2127fc	0.039344773
27	0xbd4e200e	-0.05032354
28	0xbc97295c	-0.018452339
29	0xbcdb7648	-0.0267898
30	0x3d8495c4	0.06473878
31	0xbd5ebf8c	-0.054381892
32	0xbd15d61d	-0.036581147
33	0xbc607573	-0.013699877
34	0xbd049cdc	-0.032376155
35	0xbd8c8de4	-0.06863001
36	0xbd75b32c	-0.059985325
37	0x3ae16b80	0.0017198175
38	0x3c830b4c	0.015996598
39	0x3c0a7fc0	0.00845331
40	0xbb79f7e0	-0.003814213
41	0x3d52aec0	0.051436186
42	0x3d6983a4	0.057010308
43	0xbb947ad0	-0.004531242
44	0xbcd30588	-0.025759473
45	0xbc8f9288	-0.017525926
46	0xbcff5358	-0.031167671
47	0x3c28d9b4	0.010305811
48	0xbc4d4a48	-0.012529917
49	0xbd1ea6f8	-0.038733453
50	0xbbf01a70	-0.0073273703
51	0x3d3544da	0.044255115
52	0xbd1eeec6	-0.03880193
53	0x3d6b58c0	0.057457685
54	0xbcb984b6	-0.02264629
55	0x3c486206	0.012230402
56	0x3d1f0b69	0.03882924
57	0x3c8f3488	0.017481104
58	0xbb9316ea	-0.0044888156
59	0x3d59d867	0.053184893
60	0xbd8ed9a1	-0.06975103
61	0x3d0cd399	0.034381483
62	0xbc652bd1	-0.013987497
63	0x3c4f1172	0.012638437
64	0xbc7a3eef	-0.015273794
65	0xbbb882f0	-0.0056308433
66	0xbd183ed2	-0.037169285
67	0x3cf5b1e1	0.029992046
68	0xbd81fc19	-0.06346912
69	0x3da1c96c	0.07899746
70	0xbd4e0d8a	-0.05030588
71	0xbc20e82e	-0.009820981
72	0xbd9d7242	-0.076878086
73	0xbd778e43	-0.060438406
74	0x3d9c66ae	0.07636772
75	0x3d332b5b	0.04374252
76	0xbd4e4ca2	-0.05036605
77	0x3c233ef0	0.009963736
78	0x3d2f16b8	0.042746276
79	0x3d82098e	0.06349479
80	0x3d6efa21	0.05834401
81	0xbc2ba903	-0.010477307
82	0x3aee0df1	0.0018162114
83	0xbd180234	-0.037111476
84	0x3cea325c	0.028588466
85	0xbd1d1795	-0.038352568
86	0x3d4f6f10	0.050643027
87	0x3cc15ad8	0.023602888
88	0x3cb1a26e	0.021683898
89	0x3d302e6d	0.043013025
90	0xbc034aa8	-0.008013405
91	0x3ba86568	0.0051390417
92	0xbbe7b297	-0.00707085
93	0x3d64d7b5	0.055869777
94	0xbc777b35	-0.015105058
95	0xbce1c08e	-0.027557638
96	0xbc65f289	-0.014034876
97	0xbd7859cf	-0.060632523
98	0xbd11dbed	-0.03561013
99	0x3d79bb8d	0.060969878
100	0xbd40d152	-0.047074623
101	0xbd581c58	-0.052761406
102	0xbc941917	-0.01807837
103	0xbc445def	-0.011985286
104	0xbd68581a	-0.056724645
105	0xbb78522b	-0.0037890773
106	0x3d8113f2	0.063026324
107	0xbd766366	-0.060153387
108	0x3d7a5e5e	0.06112515
109	0xbcc57d79	-0.024107682
110	0xbcb2c243	-0.021821147
111	0x3d580293	0.05273683
112	0x3cfbc02e	0.030731287
113	0xbd656277	-0.056002107
114	0x3cd043df	0.025422988
115	0xbd05dbe9	-0.032680426
116	0x3cac76dd	0.021052772
117	0x3bfddefe	0.00774753
118	0xbbe8f1e8	-0.0071089156
119	0xbd3e05ff	-0.046392437
120	0xbce3cdc8	-0.027808085
121	0xbd813355	-0.06308619
122	0xbcf90a9b	-0.030400565
123	0xbd2f90a5	-0.042862553
124	0xbcc6c1f0	-0.024262398
125	0xbd99ed6f	-0.0751599
126	0xbd5f7f3d	-0.054564703
127	0x3ca49881	0.02009225
128	0x3ce1664a	0.027514596
129	0xbb1cdaec	-0.0023934199
130	0xbd2129a0	-0.039346337
131	0xbd503099	-0.050827596
132	0xbd3efc86	-0.046627544
133	0x3c5c98f4	0.013464201
134	0xbd75a0ba	-0.059967734
135	0x3cd5e869	0.026111798
136	0xbd3c7601	-0.046010975
137	0x3ca096c9	0.01960315
138	0xbc0185de	-0.007905452
139	0xbc26bcf2	-0.010176884
140	0xbd180c6b	-0.037121218
141	0x3c8cd341	0.017190577
142	0xbd268059	-0.040649746
143	0x3c1843d7	0.009293518
144	0x3d7b5364	0.061358824
145	0x3cdc0d07	0.02686168
146	0x3cdddf0f	0.027083902
147	0x3bcf0f67	0.006318975
148	0x3c7b4437	0.015336088
149	0xbd745acd	-0.059656907
150	0xbc80a473	-0.015703415
151	0xbd154310	-0.03644091
152	0x3d1668b5	0.03672095
153	0xbd0bc8bb	-0.03412698
154	0xbc3988df	-0.0113241365
155	0x3c4c6c9f	0.012477069
156	0xbc28a3bf	-0.010292946
157	0x3cced3d6	0.025247496
158	0xbd6b2c46	-0.05741527
159	0x3d860f05	0.065458335
160	0x3d3718ef	0.044701513
161	0xbd2d7bed	-0.042354513
162	0x3c107072	0.008815872
163	0x3d1d7c51	0.038448635
164	0x3d3fe67b	0.046850663
165	0x3d2d7bfb	0.042354565
166	0x3d3fef5c	0.04685913
167	0x3d78c5a9	0.06073538
168	0xbc65f765	-0.014036034
169	0xbd595399	-0.05305824
170	0xbd8946da	-0.06702967
171	0x3d5b0e13	0.05348022
172	0xbd70c642	-0.058782823
173	0x3d4aa5bb	0.04947446
174	0xbba72385	-0.00510067
175	0x3d417967	0.04723492
176	0xbba1eeec	-0.004941812
177	0x3c1cea80	0.0095773935
178	0xbd34721e	-0.044054143
179	0xbd75d040	-0.060013056
180	0x3d867d2f	0.065668456
181	0x3d57b0b4	0.05265875
182	0xbd57c544	-0.05267836
183	0x3da59aac	0.08086142
184	0xbd2bdee3	-0.04196061
185	0x3d7d13d4	0.061786488
186	0x3c4fb6a1	0.0126778195
187	0x3d0f098b	0.03492121
188	0xbd5257ac	-0.05135314
189	0xbd4de5bb	-0.050267916
190	0x3d622d0c	0.05521874
191	0xbd2e183c	-0.04250358
192	0xbbe70081	-0.0070496206
193	0x3ca3c83c	0.01999294
194	0x3d432332	0.047640987
195	0xbd417852	-0.047233887
196	0x3d257270	0.04039234
197	0xbd9523da	-0.07282229
198	0xbd4c6020	-0.04989636
199	0x3d3616b2	0.044455238
200	0x3d701818	0.058616728
201	0xbdb8bbc5	-0.09020189
202	0x3d3d486a	0.046211638
203	0xbd5d424f	-0.054018315
204	0xbc8b3ce0	-0.0169968
205	0x3d7ea6ac	0.06217067
206	0xbd8b2b3c	-0.06795356
207	0x3d807488	0.062722266
208	0xbcb9cd8f	-0.022681026
209	0x3d895a96	0.06706731
210	0xbd58ca15	-0.052927095
211	0xbd8f6f8c	-0.07003698
212	0xbd94dcb4	-0.07268658
213	0x3d275619	0.040853593
214	0x3d92eb1d	0.071737505
215	0xbb727bcd	-0.003700006
216	0x3d487152	0.048936196
217	0xbb0448cd	-0.0020184994
218	0xbcaa6e4a	-0.020804543
219	0x3d0b1c5a	0.033962585
220	0x3d8dc498	0.06922263
221	0x3d88480a	0.06654365
222	0x3d07c608	0.03314784
223	0x3d8dd89c	0.069260806
224	0x3ce3d670	0.027812213
225	0xbcfac8ee	-0.030613389
226	0x3cce6fd4	0.025199808
227	0x3d724d14	0.05915554
228	0x3b68dd00	0.0035532117
229	0xbd649900	-0.055809975
230	0xbd12ccb5	-0.035839755
231	0xbbdbee77	-0.006711777
232	0xbd2d5eb8	-0.04232666
233	0xbca170b2	-0.019707058
234	0x3b4ffc40	0.0031736046
235	0xbd924d3d	-0.07143638
236	0xbce082bc	-0.027406089
237	0xbc0dc418	-0.008652709
238	0xbcafe614	-0.021472014
239	0xbd4b18d9	-0.049584243
240	0x3d4ee21c	0.050508603
241	0xbd6a5f91	-0.057220045
242	0xbc2d1fb5	-0.010566642
243	0x3d922215	0.07135407
244	0xbcd25d3f	-0.025679229
245	0x3d850b3a	0.06496282
246	0xbb48cc84	-0.003063948
247	0xbdaadb99	-0.08342666
248	0xbd456c85	-0.048199195
249	0xbc9f117e	-0.01941752
250	0xbbd1b6aa	-0.006399949
251	0x3cb22852	0.021747742
252	0x3c9a723f	0.018853305
253	0x3c6cb124	0.0144465305
254	0xbd91a40f	-0.0711137
255	0xbd266fd3	-0.040633988

bias f4 [128]
0	0x3b10cc7e	0.0022094543
1	0xbe098788	-0.13430607
2	0xbde17be1	-0.11009956
3	0xbe19eb73	-0.15031223
4	0xbe075264	-0.13215023
5	0xbb42bcb7	-0.0029714534
6	0xbe17c191	-0.14819933
7	0x3e392310	0.18079782
8	0x3d22d580	0.03975439
9	0xbce606e0	-0.02807945
10	0x3da1cfe1	0.07900978
11	0x3db2ba7a	0.08726974
12	0xbe22e15e	-0.15906283
13	0x3e636928	0.22208083
14	0xbd58711a	-0.052842237
15	0x3d25f999	0.040521238
16	0xbdfcc04d	-0.12341366
17	0xbd94d1dc	-0.0726659
18	0x3d98f76e	0.074690685
19	0xbd3f1d9b	-0.046659093
20	0x3da9ef95	0.0829765
21	0xbccaba74	-0.02474711
22	0x3c2e78c1	0.010648907
23	0xbd9213e8	-0.07132703
24	0xbd57121b	-0.0525075
25	0xbca0e986	-0.019642603
26	0xbdb84446	-0.08997397
27	0xbcec3c81	-0.028837444
28	0xbe28b5dd	-0.16475625
29	0x3ca86220	0.020554602
30	0x3d584ceb	0.05280773
31	0xbda68f9d	-0.08132861
32	0xbdfe823a	-0.124271825
33	0x3b55381b	0.0032534662
34	0xbd90018f	-0.07031547
35	0xbd244e9f	-0.04011404
36	0xbd361db3	-0.044461917
37	0x3e1d0e76	0.15337548
38	0xbe16b644	-0.14717966
39	0xbda8b4c8	-0.08237606
40	0x3dcb9ac2	0.09941627
41	0xbe049d6e	-0.1295068
42	0xbe3c6a3e	-0.18399903
43	0xbc74b4b8	-0.014935665
44	0xbb90311e	-0.0044003865
45	0xbe597271	-0.21235062
46	0x3e0baf0d	0.13640995
47	0xbe1c8536	-0.15285191
48	0xbd50790a	-0.05089668
49	0x3dfc79bd	0.12327907
50	0x3cdaaaed	0.026692832
51	0xbd4180cf	-0.047241982
52	0x3e189e72	0.14904192
53	0xbc7ae671	-0.015313731
54	0xbe1f155a	-0.15535489
55	0xbd4eb666	-0.050466917
56	0xbe615e20	-0.22008562
57	0xbd718299	-0.05896244
58	0xbdcf4570	-0.10120666
59	0x3d39f253	0.045397114
60	0x3c187d7b	0.009307261
61	0x3db038d9	0.08604593
62	0xbd65ca9b	-0.056101423
63	0xbe403e5d	-0.1877379
64	0xbe60be88	-0.21947682
65	0x3e20449c	0.15651172
66	0x3de2a4d2	0.11066593
67	0xbe3a88fe	-0.18216321
68	0xbdf3076e	-0.118666515
69	0xbe2eb325	-0.17060526
70	0x3c322179	0.010872238
71	0xbb1f7b64	-0.002433502
72	0x3cd6f443	0.02623952
73	0xbd9be28e	-0.07611571
74	0x3d20947e	0.039204113
75	0x3b89defe	0.004207491
76	0x3d90238b	0.07038029
77	0x3e0a2754	0.13491565
78	0xbd5e9806	-0.0543442
79	0x3d44d536	0.048054896
80	0xbdae4e57	-0.08511036
81	0xbd02cbe0	-0.03193271
82	0x3dd10c7e	0.10207461
83	0x3e1475a3	0.14498
84	0xbcb98669	-0.0226471
85	0x3bdc8160	0.00672929
86	0xbd2d8a25	-0.042368073
87	0x3d3a45f1	0.045476858
88	0x3e073398	0.13203275
89	0xbd3aa197	-0.04556426
90	0x3de70c2e	0.1128162
91	0xbb8c452d	-0.0042807073
92	0xbcf7e945	-0.030262599
93	0xbe02b40a	-0.12763992
94	0x3da72bc6	0.08162646
95	0xbc861fb0	-0.016372532
96	0xbd098895	-0.03357752
97	0x3d6e742e	0.058216266
98	0xbd1fe3e3	-0.03903569
99	0xbe50011b	-0.20312922
100	0x3ddef55d	0.10886643
101	0x3dfb83f0	0.122810245
102	0x3c6d04bc	0.014466461
103	0xbde6b4b3	-0.112649344
104	0x3d667bad	0.05627029
105	0xbb861a2c	-0.0040924754
106	0x3d2254f1	0.039631788
107	0xbd87e4e9	-0.06635458
108	0x3e25b0a6	0.16180667
109	0x3d6b14a1	0.05739272
110	0x3e2664a2	0.16249326
111	0xbe08d099	-0.13360824
112	0xbd963f41	-0.073362835
113	0xbcdce812	-0.026966128
114	0x3d8523df	0.065009825
115	0xbd8d48d3	-0.06898656
116	0xbd4fc34f	-0.05072337
117	0x3e42eb96	0.19035181
118	0xbd5d28d1	-0.053994004
119	0x3e0acdb3	0.1355503
120	0x3c9348ca	0.017979044
121	0xbd9aa4e5	-0.075509824
122	0x3db735c0	0.08945799
123	0x3ccdec3a	0.025137056
124	0x3db4fe28	0.08837539
125	0x3d806b8b	0.06270512
126	0xbd7cf383	-0.06175567
127	0x3e27f42a	0.16401735

weight f4 [31, 184]
0	0x3c5eb348	0.013592549
1	0xbd2754d4	-0.040852383
2	0xbb2b0620	-0.002609618
3	0xbd8f6763	-0.07002141
4	0x3cec5aa0	0.028851807
5	0xbbe28a60	-0.0069134682
6	0x3d4a173a	0.049338557
7	0x3f0c5e91	0.54831797
8	0x3d83f890	0.06443894
9	0x3cd21a8c	0.025647424
10	0x3d50516e	0.050858907
11	0xbdaf1d20	-0.08550477
12	0x3d89dbc2	0.067313686
13	0x3cd8208c	0.026382707
14	0xbc544eac	-0.01295821
15	0x3ce9ce40	0.02854073
16	0xbcbdfbbc	-0.023191325
17	0xbce2382e	-0.02761468
18	0xbd946585	-0.07245926
19	0x3c238660	0.009980768
20	0x39e4c300	0.00043632835
21	0xbd60f6e4	-0.054922953
22	0xbd6165d0	-0.055028737
23	0x3d8ad748	0.06779343
24	0x3cb30094	0.021850862
25	0xbd6783c7	-0.056522157
26	0x3d8fb7ae	0.07017456
27	0xbd8f2fe6	-0.06991558
28	0x3d71ca20	0.059030652
29	0xbc9d4c26	-0.01920135
30	0xbc88e36a	-0.016710002
31	0x3d4f3ff0	0.050598085
32	0x3d35d390	0.044391215
33	0xbd7f4930	-0.062325656
34	0xbd8311d9	-0.063998885
35	0x3c82afbc	0.015952937
36	0x3d3f8724	0.04675974
37	0x3d645d28	0.055752903
38	0x3d85450c	0.0650731
39	0xbc84020c	-0.016114257
40	0x3d7a1490	0.061054766
41	0xbc092658	-0.008370958
42	0x3d67560c	0.056478545
43	0x3c86f354	0.01647345
44	0x3c75cf90	0.0150031
45	0xbd5bbea0	-0.05364859
46	0xbd76b6b2	-0.060232826
47	0xbd695928	-0.05696979
48	0x3d6aca5c	0.05732189
49	0xbccc9338	-0.024972543
50	0xbcfcecee	-0.030874696
51	0x3d6442f0	0.0557279
52	0x3d92a2f0	0.07159984
53	0x3bebaa80	0.007191956
54	0x3cd67514	0.026178874
55	0xbd65c2e8	-0.05609408
56	0x3d40bddb	0.04705606
57	0xbbc2bc19	-0.005942833
58	0xbc1d5f57	-0.00960525
59	0xbda3a56e	-0.079905376
60	0x3dacadeb	0.0843161
61	0x3da09b2c	0.07842097
62	0x3cb4568a	0.022013921
63	0x3ddb290b	0.10701188
64	0xbc1d98e8	-0.009618975
65	0xbce90121	-0.028442921
66	0x3da78fd5	0.08181731
67	0x3cfc807a	0.030822981
68	0xbe27f0be	-0.1640043
69	0x3e0bf382	0.1366711
70	0xbd913dc8	-0.07091862
71	0xbdcf29c0	-0.10115385
72	0xbd6f610e	-0.058442168
73	0x3cb500da	0.022095133
74	0x3c39adae	0.011332912
75	0x3ce8f603	0.02843762
76	0x3dcc8326	0.09985952
77	0xbd6c9dc4	-0.057767645
78	0x3d79b187	0.06096032
79	0x3dcd101b	0.100128375
80	0xbd84e9b1	-0.064898856
81	0x3dbfa350	0.09357321
82	0xbdad4dc1	-0.08462096
83	0xbd3596c9	-0.044333253
84	0xbc96d6bf	-0.018412946
85	0xbdae4472	-0.08509149
86	0xbd7e95b1	-0.062154476
87	0x3ba69927	0.005084175
88	0x3bb4a71a	0.005513084
89	0xbd49e1ba	-0.049287535
90	0x3d9c6d0a	0.07637985
91	0xbd768f7a	-0.060195424
92	0x3dce0f5f	0.100615256
93	0x3e0f5b1a	0.13999596
94	0xbd8cb708	-0.06870848
95	0xbe1c310b	-0.15253083
96	0x3db5ce21	0.088772066
97	0x3d1650b4	0.03669806
98	0xbdc8c34e	-0.098028764
99	0x3d26a20b	0.04068188
100	0xb932a5d4	-0.00017037179
101	0xbe3898d1	-0.18027045
102	0x3dd2cac7	0.10292583
103	0xbd9a8222	-0.07544352
104	0xbc9362c6	-0.017991435
105	0x3c3eca60	0.01164493
106	0xbd670cd3	-0.056408715
107	0xbcab27f3	-0.020893073
108	0x3dec2b2c	0.11531672
109	0xbdca82c9	-0.098882265
110	0xbd5f1240	-0.054460764
111	0x3d9cd0cb	0.076570116
112	0xbdab4786	-0.083632514
113	0x3d1e3c37	0.038631644
114	0xbe1aab23	-0.15104346
115	0x3bfe2cdb	0.007756812
116	0x3d118d75	0.035535295
117	0x3de651d6	0.11246078
118	0x3c5c0eb3	0.013431239
119	0xbd99f2ca	-0.075170115
120	0xbd9d5274	-0.07681742
121	0x3d9dac2c	0.07698855
122	0x3dd5e2c9	0.104436465
123	0xbe129a8e	-0.1431677
124	0xbd892d3c	-0.06698081
125	0xbd3c84d6	-0.04602512
126	0xbb75b255	-0.0037490327
127	0x3a891e56	0.0010461311
128	0x3d12bf28	0.035826832
129	0xbd872f89	-0.066008635
130	0x3d07cae3	0.033152472
131	0x3d3001cd	0.042970467
132	0x3d88f63b	0.0668759
133	0x3d8fabed	0.07015214
134	0xbd46d310	-0.04854113
135	0x3cbe7cc7	0.023252858
136	0xbe3754b7	-0.1790341
137	0xbc239c49	-0.009985992
138	0x3deade39	0.11468167
139	0x3e00c228	0.12574065
140	0xbdcd421b	-0.10022374
141	0xbc90ed78	-0.017691359
142	0xbd14b2e1	-0.036303405
143	0xbd3c93b2	-0.04603929
144	0x3e0e4558	0.1389364
145	0xbda3a908	-0.079912245
146	0xbdd206db	-0.10255214
147	0x3d9d07cc	0.07667503
148	0xbd69bc09	-0.05706409
149	0xbe19eb7f	-0.15031241
150	0x3d98ba79	0.07457442
151	0xbd8e9916	-0.069627926
152	0xbd0551a1	-0.03254855
153	0xbddcdf08	-0.10784727
154	0x3d3a9845	0.04555537
155	0xbd4fbf80	-0.050719738
156	0xbd8b2ece	-0.06796037
157	0xbb9e3bd9	-0.0048289117
158	0xbd4af93e	-0.049554102
159	0xbda070c8	-0.07834011
160	0x3d91491b	0.07094022
161	0xbd224626	-0.03961768
162	0x3dd4f239	0.10397763
163	0xbd8c4458	-0.06848973
164	0x3d18cbfc	0.03730391
165	0xbd59dcf5	-0.053189237
166	0x3d93869b	0.07203408
167	0xbd3fe4c7	-0.04684904
168	0xbdc0f7c5	-0.09422258
169	0xbd28a1c9	-0.041169915
170	0xbdcce07f	-0.10003757
171	0xbc84cc7e	-0.01621079
172	0xbd4b2656	-0.049597107
173	0x3e0b8916	0.13626513
174	0xbe1f537b	-0.15559189
175	0x3d93bdaa	0.0721391
176	0xbd15f3aa	-0.03660933
177	0x3c134e17	0.008990786
178	0x3da36527	0.07978278
179	0xbcbdfb03	-0.02319098
180	0x3db80f11	0.08987249
181	0xbce84ad5	-0.028355995
182	0x3c0ba133	0.00852232
183	0x3bab735d	0.0052322582
184	0x3c0ed048	0.00871665
185	0xbba7fa10	-0.0051262453
186	0xbd2af31f	-0.041735765
187	0xbd151be3	-0.036403548
188	0xbc2a9328	-0.010411061
189	0xbd9131bb	-0.070895635
190	0xbc37b76b	-0.011213164
191	0x3d99aaa2	0.07503249
192	0x3d37c7fc	0.044868454
193	0xbd323ad3	-0.04351313
194	0xbcea8584	-0.028628118
195	0x3c844c8e	0.016149785
196	0xbc80f594	-0.0157421
197	0x3ba030c0	0.004888624
198	0xbd82a48e	-0.063790426
199	0xbd6bd334	-0.057574466
200	0xbd54f454	-0.051990822
201	0x3d7d5814	0.061851576
202	0x3d11f9ce	0.035638623
203	0xbd285229	-0.04109398
204	0x3c9cef04	0.01915694
205	0xbcee2ca6	-0.029074024
206	0x3d173b2c	0.036921665
207	0x3d555700	0.052084923
208	0x3b038800	0.0020070076
209	0x3d86a978	0.06575292
210	0xbd1e45b2	-0.038640685
211	0x3b8c1ae0	0.0042756647
212	0x3d75b744	0.05998923
213	0x3d69ef1c	0.057112798
214	0x3c9104cc	0.017702483
215	0xbd5a4184	-0.053285137
216	0x3d425246	0.047441743
217	0x3d5a9178	0.053361386
218	0xbcc28b7a	-0.023748148
219	0xbad52940	-0.0016262904
220	0x3cccf9ac	0.025021397
221	0x3d03c33a	0.032168604
222	0x3d6eeb70	0.05833
223	0xbc001ee8	-0.007819869
224	0x3d6853e0	0.056720614
225	0x3bf73dc0	0.007545203
226	0x3d895642	0.067059055
227	0x3cd52f20	0.026023448
228	0xbd027aac	-0.03185527
229	0xbd8a3705	-0.067487754
230	0x3d59e1a0	0.05319369
231	0x3d8319a0	0.06401372
232	0xbd2ccc0b	-0.042186778
233	0x3d5ecbc8	0.05439356
234	0x3d56bc5c	0.052425727
235	0xbd1f517f	-0.03889608
236	0xbcc8afd2	-0.0244979
237	0x3c59eb88	0.013300784
238	0x3cc0e510	0.023546726
239	0xbd4ac278	-0.049501866
240	0x3d187d21	0.037228707
241	0x3d54e4e8	0.051976115
242	0xbcf5bdaf	-0.029997675
243	0xbdaa6640	-0.08320284
244	0x3d896712	0.06709112
245	0x3da7e55f	0.08198046
246	0x3bb206be	0.0054329326
247	0x3ce02ae4	0.027364202
248	0xbd5fa595	-0.05460127
249	0x3d20fd77	0.039304223
250	0x3b30bdc0	0.0026968569
251	0xbc3bc885	-0.011461382
252	0xbcba7af8	-0.022763714
253	0x3d11eadc	0.03562437
254	0x3d3c58ae	0.04598301
255	0x3cb8e7e9	0.02257152

bias f4 [31]
0	0x3eaafcb4	0.33395922
1	0xb98bf322	-0.00026693294
2	0x3dd4cc7b	0.10390564
3	0xbdb22ce1	-0.08699966
4	0x3b83058d	0.0039984644
5	0xbc30cc87	-0.010790951
6	0xbd7c0fb0	-0.0615384
7	0xbd2a86d5	-0.041632492
8	0xbd8c84ce	-0.06861268
9	0x3c33d27c	0.010975476
10	0xbdb3e66f	-0.08784186
11	0xbd5e2b72	-0.05424065
12	0xbdd6e339	-0.10492558
13	0xbce31c01	-0.027723314
14	0xbdd201a6	-0.10254221
15	0xbdb2238f	-0.086981885
16	0x3c19a991	0.009378807
17	0x3e0de986	0.13858613
18	0x3d015193	0.031571936
19	0xbd8efae6	-0.06981449
20	0xbd4a8ed6	-0.049452625
21	0x3d83e756	0.06440608
22	0xbd26ac68	-0.040691763
23	0x3c88800b	0.016662618
24	0x3d043333	0.03227539
25	0x3cd95b75	0.026532868
26	0xbd55e1df	-0.05221736
27	0xbd2d0318	-0.04223928
28	0xbd756219	-0.059908006
29	0xbd691cd8	-0.056912273
30	0x3d9fa431	0.07794989
