Netz.pt (torch_old, 102860 bytes, 4 tensors)

weight f4 [128, 184]
000000 e9 07 35 bd d4 b6 8c bc 93 15 83 3c 5e 37 74 bd
       -0.044196997 -0.017177023 0.016001498 -0.059623115
000010 23 68 15 3d 2c 5e a3 3c b6 b7 18 3d 33 92 8b 3d
       0.036476266 0.019942366 0.037284575 0.06814995
000020 3c d6 67 3d 30 b0 09 3c 9a 19 8e 3d b8 10 85 3d
       0.056600794 0.008403823 0.06938477 0.064973295
000030 98 4e 8b 3d 13 f0 6b 3d 24 03 c6 3c 3e 2f 2a 3d
       0.068021 0.057602 0.02417142 0.04154896
000040 60 56 a9 bb c9 25 84 3d 71 7a 8e 3d bf 13 c0 3c
       -0.0051677674 0.064525194 0.069569476 0.023446916
000050 1f 91 9e 3c 88 1c 22 3c cc af 44 3d 4c 2a 3c 3d
       0.019356309 0.009894498 0.048019215 0.045938775
000060 2a 7b b5 bb 98 a3 92 3d e0 ff 4a bc 84 5b e0 bc
       -0.005538364 0.07160109 -0.012390107 -0.027387388
000070 32 74 3c 3d 88 50 8d 3d 2a 01 31 bc d0 f3 5d bc
       0.04600925 0.06900126 -0.0108035 -0.013546899
000080 7a 8a 0b 3d e6 7d e2 bb bc 2f e3 3c 86 c4 ff bc
       0.03406761 -0.006911981 0.027732722 -0.03122164
000090 e0 1e bb 3b 60 1b dc bb 0f b5 82 bd 97 ee 2c bd
       0.0057104677 -0.0067171305 -0.063821904 -0.042219725
0000a0 60 cc 02 bb 10 00 b2 3c ac 0c f7 bc f6 bf e0 bc
       -0.0019958243 0.021728545 -0.03015741 -0.027435284
0000b0 10 0b 8c 3d dc 09 ca bc 7e 01 8c 3d b8 5e 8e 3c
       0.068380475 -0.024662904 0.06836222 0.01737915
0000c0 cd ac 8d bd 82 ea 09 3d e4 c6 72 3d 00 30 62 3d
       -0.06917725 0.03367091 0.059271708 0.055221558
0000d0 89 bb 07 bd f4 a7 02 bd d0 cf 4f bd f6 d9 62 bd
       -0.03313783 -0.031898454 -0.050735295 -0.055383645
0000e0 3e 3f 3a 3d 8c 41 70 bc 85 26 21 bd d1 8d dc bc
       0.04547047 -0.014664065 -0.039343376 -0.026923092
0000f0 a4 a5 f6 bb db e8 19 bd ec da 2a bd 92 e2 45 bd
       -0.00752707 -0.037575584 -0.041712686 -0.048311777
000100 00 b2 8b bc b8 ff 10 3c ef a9 8a 3d d0 e0 89 bd
       -0.01705265 0.008850031 0.067706935 -0.06732333
000110 d3 fa c1 bb 80 1b 1b 3d 7a 7e de 3c 55 f0 0e 3d
       -0.005919793 0.037868023 0.027159918 0.034897167
000120 c7 92 6e 3c 84 df 30 3d b6 f1 35 bb 4b e2 9d 3c
       0.014561362 0.04318191 -0.002776248 0.019272944
000130 36 4a 7f 3d a8 7b 64 bd f7 a6 10 bd e7 fc 58 bc
       0.062326632 -0.05578199 -0.03531548 -0.01324389
000140 09 a7 d6 bc 3b 4a 0b 3c ab 20 d9 3c 92 57 d6 bc
       -0.026202695 0.008501585 0.026504835 -0.026164804
000150 9e 61 92 3c 04 99 58 bd 98 d2 8e 3d 98 9f 0b bd
       0.017868813 -0.052880302 0.06973761 -0.034087747
000160 5a 09 18 3d c9 8c 30 bc 31 ee 8b bc 0e 1f 49 bd
       0.037118293 -0.010775753 -0.017081352 -0.04910188
000170 22 91 7e bd b4 4f 5a 3d 9d 7f 71 3d 03 51 97 3b
       -0.06215013 0.053298667 0.058959592 0.0046178116
000180 c6 4f 77 38 16 cb 8f bd df 57 4b bc f6 1e 7b bd
       5.8963684e-05 -0.070211574 -0.012411087 -0.061308824
000190 8a 6c 86 3d a5 ff ed bc 26 12 81 bd 97 fc 56 bd
       0.06563671 -0.029052565 -0.0630229 -0.052486982
0001a0 55 dc 18 3d 04 24 42 bd 3e b9 69 3c bd 3c 8b 3c
       0.0373195 -0.04739763 0.014265357 0.016996736
0001b0 17 c6 ab bc 07 98 6c 3a e1 9f d8 3c 68 e5 14 3c
       -0.02096848 0.00090253394 0.026443424 0.009087898
0001c0 2a 23 ac bc ec cc 95 bd b9 f4 7a bc 5d 97 ac bc
       -0.021012861 -0.07314476 -0.0153171355 -0.02106827
0001d0 88 93 ca bc 06 8c 8a bd 27 ab 04 3d 9b ca 24 3d
       -0.024728552 -0.067649886 0.032389786 0.040232282
0001e0 ce f0 b9 bb 67 78 49 bd 43 f3 1b 3d df eb 31 3d
       -0.005674458 -0.04918709 0.03807379 0.043437835
0001f0 bf c5 ff bc 31 a8 97 bb 64 6b 6c bc 93 b2 36 bd
       -0.031222222 -0.0046282043 -0.014429901 -0.044603895
000200 d7 bd 21 bd 85 e0 8c bc f1 bf ef 3a 27 d4 8d 3d
       -0.039487686 -0.017196903 0.0018291456 0.069252305
000210 9c 5b c4 bc 46 ee 83 bd 3a dd 72 bd 2f 1b 8e bd
       -0.023969464 -0.064419314 -0.05929301 -0.069387786
000220 55 d4 f6 3c b1 df e4 3c 39 a9 a3 bc 0a 71 61 bc
       0.030130545 0.027938696 -0.019978153 -0.013759861
000230 1c 46 26 3d b4 8c 42 3d a3 66 93 bc ea 91 3a 3b
       0.040594205 0.047497466 -0.017993277 0.002846832
000240 1b 20 b5 3c 6d 9b 01 3d fb 9b 8b bd 13 d5 2e bd
       0.022110036 0.031642366 -0.0681686 -0.042683672
000250 d1 9f 1e bc 9c 44 0a bc 25 b5 9e bc 36 f5 57 bd
       -0.009681658 -0.008439209 -0.019373486 -0.052724086
000260 2a 0e 0f 3a af 33 e3 3c d6 bc 1a bd 81 d3 8d bd
       0.00054571277 0.027734606 -0.037777744 -0.06925107
000270 cf 75 67 3d 86 f7 82 3c c1 dc f0 3c 1a 0a 91 3d
       0.056508835 0.015987169 0.029402139 0.07082005
000280 b5 36 28 bd 36 62 74 bd 57 76 89 bb 9a 9b 91 3d
       -0.041067798 -0.059663974 -0.0041950154 0.07109757
000290 9a 86 c2 bc 68 98 85 bc 09 71 b5 3b 0e e4 81 bc
       -0.023745824 -0.016308025 0.0055371565 -0.015855815
0002a0 ac 80 69 bd b3 20 d0 3c 79 1f 50 3d a3 19 82 3d
       -0.057007477 0.025406217 0.050811265 0.06352546
0002b0 db bb 9f bc ce 85 eb 3c 98 74 13 bd ca 33 2f bd
       -0.019498756 0.028750326 -0.035999864 -0.042774
0002c0 18 86 b3 3c 8e 3d 1c 3d ba 29 18 3d 00 a6 a3 bc
       0.021914527 0.03814464 0.03714917 -0.019976616
0002d0 ee 5b 20 3d 87 a1 eb bc 21 85 44 3c b8 e7 64 bd
       0.03915017 -0.028763546 0.011994631 -0.055885047
0002e0 84 4f 86 3d 53 64 0b bd 89 58 d2 3b 38 0d 86 3d
       0.06558135 -0.034031224 0.0064192456 0.0654549
0002f0 8a ed 95 3d b4 94 74 3d c9 3c 82 bd 31 54 6f bd
       0.073206976 0.059712127 -0.0635925 -0.0584299
000300 6f f3 98 bc 10 d4 19 bc 9e 57 6c bd 10 ec ad bc
       -0.018670766 -0.009388939 -0.057700746 -0.021230727
000310 00 10 41 bb 5d ef 14 bd 3e 73 fb bc 90 3e 73 3d
       -0.0029459 -0.036361087 -0.0306946 0.059385836
000320 0e f4 0f 3d 0c 9b 8b bd 4c 95 a4 3c e2 13 59 bc
       0.035144858 -0.06816682 0.020090722 -0.013249369
000330 e0 2a b2 bc e8 cf 72 3d 77 29 74 bd ee 9c 03 bd
       -0.02174896 0.059280306 -0.059609856 -0.03213208
000340 8e a1 6a bd 16 16 89 bd 20 6a d1 bb b4 5f 1f 3d
       -0.057282977 -0.06693666 -0.006390825 0.03890963
000350 8a 18 b5 bc f8 23 1c bd 09 04 70 3d e8 fb 0e bc
       -0.022106428 -0.03812024 0.0585976 -0.008727051
000360 ae 0d 3e bd 2e 5e 82 3d d0 88 8f 3d 58 cf 0c 3d
       -0.046399765 0.063656196 0.07008517 0.034377426
000370 6c 0f 92 3c 60 e8 18 bc f0 e7 95 bd 2f 86 20 bd
       0.01782962 -0.009332746 -0.07319629 -0.039190467
000380 56 27 82 bd e8 12 82 bd b0 bc 4a 3c 7e e5 6a bd
       -0.06355159 -0.06351262 0.012374088 -0.057347767
000390 d4 2d 8a 3d d2 9f 46 bd 75 09 70 bd e6 6b 86 3d
       0.06747022 -0.04849226 -0.05860277 0.06563549
0003a0 dc b1 13 bd 2c f5 5e 3d 68 b2 02 bc b1 47 71 bd
       -0.03605829 0.054433033 -0.007977106 -0.05890626
0003b0 0a 24 12 3d d2 b9 1f bd ac 97 36 bd 0d c6 53 3d
       0.0356789 -0.03899557 -0.04457824 0.051702548
0003c0 44 de f4 3b ac c4 09 3d a8 46 95 3d 11 04 e0 3c
       0.007472785 0.033634827 0.07288867 0.027345689
0003d0 bb d2 83 3c fe 3d b5 bc 9f 17 80 bd 8d ce 28 3d
       0.016091695 -0.022124287 -0.06254505 0.041212607
0003e0 66 ec 8f 3d 5b 27 55 bc 0e d1 82 bd ec 72 34 bd
       0.07027511 -0.013009871 -0.0638753 -0.04405491
0003f0 7c f5 7d bd 1a 1c 37 bd 9c ac 6b 3c 70 c3 87 3d
       -0.06200169 -0.044704534 0.014384415 0.066290736

bias f4 [128]
000000 60 8c 1c bd d7 a5 cb bc 29 a7 7f 3d e9 b1 e7 bc
       -0.03821981 -0.024859352 0.062415276 -0.028283076
000010 68 86 40 3d 2d 86 3e bc 30 5a 39 bc 37 a7 52 bb
       0.04700318 -0.01162867 -0.011313006 -0.0032143125
000020 00 d8 1a 3d 59 68 27 bd 0d b9 2a 3d 3f dd b6 3c
       0.03780365 -0.040870998 0.041680384 0.022322295
000030 ab 97 53 3c 75 bd 09 3d b8 ea 8f 3c 9b 94 ef bc
       0.012914578 0.033627946 0.017567977 -0.029245665
000040 45 65 86 bc b3 be 59 3c 90 7d a7 bb fd fa a2 bc
       -0.016405711 0.013290095 -0.0051114038 -0.019895071
000050 23 f8 aa bc 14 97 2b bd e3 14 0c bd b2 50 3f bc
       -0.020870274 -0.041892126 -0.034199607 -0.011676954
000060 de 72 28 3d 92 69 8d ba 4b 6e 25 3d 3e 88 ce b9
       0.04112517 -0.0010788909 0.040388387 -0.0003939289
000070 db 5c 5b bc 03 26 60 3d 0a ec c3 bc 8a 55 a2 bc
       -0.013388838 0.05472375 -0.023916263 -0.019816179
000080 bf 82 fc bc 4f d3 f5 bc 83 35 c7 bc fb fc f8 bb
       -0.030824063 -0.030007986 -0.024317509 -0.007598517
000090 d9 52 82 3c 9c c1 c4 bc 6e f4 2c bd 56 e0 a9 3c
       0.015908645 -0.024018101 -0.042225294 0.020736855
0000a0 e0 54 e1 3c 47 f8 2d bd b8 e1 a1 3c 35 e5 78 3c
       0.027506292 -0.042473104 0.019760951 0.015191366
0000b0 30 e4 51 3d 34 10 68 3d 1c 3b d4 3b 87 40 49 bc
       0.051243007 0.056656078 0.006476773 -0.012283451
0000c0 6b e9 06 bd f1 37 86 bc b5 71 61 bd 96 e7 b5 b9
       -0.03293745 -0.016384097 -0.05504008 -0.00034695555
0000d0 f0 9a 96 bc 59 47 fe 3c 03 7a 8a 3c 53 af bf bc
       -0.018384427 0.03103988 0.016903883 -0.02339903
0000e0 22 5d c0 bb 4e e5 78 3a 0c 1e 2a 3d 47 36 32 3d
       -0.0058704773 0.0009494618 0.04153256 0.043508794
0000f0 c4 55 ad bc 3c 6a 22 3c 30 7c df 3b 81 3e c4 bc
       -0.02115906 0.009913024 0.006820224 -0.023955585
000100 71 aa 1e bd 34 0c c9 bc fc d6 63 3d c0 a4 3c 3c
       -0.038736764 -0.024541952 0.055624947 0.011513889
000110 15 8a ea 3c 5b 21 55 bd fb 08 fb bc 7e 5b 59 3c
       0.028630296 -0.052033763 -0.03064393 0.013266442
000120 33 17 93 bb c1 14 a7 bc 9c c3 d2 3c b1 28 cc 3c
       -0.0044888495 -0.020395638 0.02572804 0.024921747
000130 a6 ff 22 3d df 7b c5 3b 9f 09 84 3b 6d 77 3c bc
       0.039794587 0.0060267295 0.0040294672 -0.011503083
000140 be e3 0d ba 0d 47 19 3c c7 ed d3 bb b1 3c dc bb
       -0.00054126594 0.009355319 -0.0064675543 -0.006721102
000150 9f 55 6c 3b a5 ee 4a bd 90 2c 29 bd 3a e5 00 bc
       0.0036061776 -0.049543995 -0.041302264 -0.007867152
000160 92 55 18 bd ca 3a 11 bd 38 52 2f bc 8d e7 48 bc
       -0.03719098 -0.035456456 -0.010700755 -0.012262237
000170 03 90 50 3c 33 52 50 bb 43 f2 16 bd a9 cb fd bb
       0.012729648 -0.0031787276 -0.036852133 -0.0077452254
000180 53 bc 6a 3c 4e 74 0b 3c 51 7b 82 bc b8 59 80 3c
       0.014327127 0.008511616 -0.015927942 0.015667781
000190 7c 6e a6 3c 47 5a a1 bc 3e 71 2a 3c 12 9a 16 bd
       0.020316355 -0.019696368 0.010402976 -0.036768027
0001a0 04 57 58 3c 1c 48 f6 bc 64 55 01 3d 46 69 9e bc
       0.01320434 -0.030063681 0.031575575 -0.019337308
0001b0 ef 6d 10 bd 04 87 58 bc 85 f1 85 bb 36 5a ef bc
       -0.03526109 -0.013215784 -0.0040876293 -0.02921782
0001c0 a3 79 31 3c 38 61 3e bc c8 f9 77 3c d8 62 10 3b
       0.010832223 -0.011619858 0.015135236 0.0022031572
0001d0 cc 3c aa bc 7b 92 df bc a3 6d 53 bd f2 32 43 bc
       -0.020780943 -0.027291527 -0.05161823 -0.011914002
0001e0 48 ca 7d 3c 8b 8c 36 bd d7 2d e6 3c 6f dd a8 bc
       0.015490122 -0.044567626 0.02809803 -0.0206134
0001f0 41 22 48 bc 47 44 09 3d 4c ff f1 3c 85 18 22 bd
       -0.012215198 0.03351238 0.02954068 -0.039574165

weight f4 [3, 184]
000000 96 31 04 3d b5 12 7a bd fe cb 31 bd 62 8e 47 3d
       0.03227385 -0.061052997 -0.043407433 0.04871977
000010 70 17 b5 bb 30 7d 4f 3c 1a fc 39 bd ab f6 dd 3e
       -0.0055264756 0.012664124 -0.04540644 0.43352255
000020 f0 3f 90 bb cc e2 68 bd 60 3d 73 3d 3b 25 e2 3e
       -0.004402153 -0.056856915 0.059384704 0.4416903
000030 0e 0b 86 3d 26 f2 1b 3d 68 a3 0a 3c aa be 3e 3d
       0.06545077 0.038072728 0.008461811 0.04656855
000040 ac b4 20 bd 7c 5a 56 bd c0 04 de 3a b0 07 67 bd
       -0.039234802 -0.052332386 0.0016938671 -0.056403816
000050 9a f1 57 bd a0 d2 63 bb a4 df 19 3d b2 31 cd bc
       -0.052720644 -0.0034762993 0.037566796 -0.02504811
000060 35 bd 16 bd 60 b4 43 3b 64 47 87 3d f8 8d 69 3c
       -0.036801536 0.002986215 0.066054136 0.014255039
000070 b8 67 fb bc 90 c4 79 3d 72 8e 28 3d 9a 6a 36 bd
       -0.030689105 0.060978472 0.04115147 -0.044535257
000080 28 b2 91 3d 1c 72 38 3d 32 5e 4b bd 02 62 da bc
       0.07114059 0.0450307 -0.04965038 -0.026658062
000090 54 16 59 3d 84 67 d6 3c d0 9c 9f bc 46 05 83 3d
       0.05299981 0.026172407 -0.019483954 0.0639749
0000a0 d3 3b 96 bd 40 a2 e3 3c 83 22 7a bd 44 6e ab bc
       -0.07335629 0.027787328 -0.06106807 -0.020926602
0000b0 f9 2e 37 bd fe 63 2d 3d 81 0a 95 bd 19 7b 72 bd
       -0.04472253 0.042331688 -0.07277394 -0.059199426
0000c0 73 d7 4d bd 42 d5 96 3d c0 7d 96 3a a6 ac 88 3d
       -0.050254297 0.073648944 0.0011481568 0.06673555
0000d0 ac 02 c3 3c 16 44 92 bd a3 ed 8d bd ac 0b 9f bc
       0.023804985 -0.071418926 -0.06930091 -0.019414745
0000e0 36 ab 20 3c 10 28 de 3c da 79 f2 3b 27 af 2a bd
       0.009806445 0.027118713 0.0073997797 -0.041670945
0000f0 ae b6 e4 ba 6f 65 2f 3c a4 b9 b9 3c 05 c9 f8 bc
       -0.0017449462 0.010705336 0.022671528 -0.030369291
000100 73 96 79 3c ab 0d 80 bc 68 38 11 bc 3e 06 a4 3b
       0.015233624 -0.015631517 -0.008863546 0.005005627
000110 7d 7f 32 bc 0e af bc 3c 89 0b 09 3d f8 1e 0a 3d
       -0.010894653 0.023032691 0.033458266 0.03372094
000120 1e 78 dc bb 38 1e fb bc 89 07 78 bc 2d 2b 40 3d
       -0.0067281863 -0.030654058 -0.015138515 0.046916176
000130 1b ed d4 3b b0 ec d5 bb 2d 9a 38 bd 18 29 d8 3c
       0.0064979917 -0.0065284595 -0.04506891 0.026386783
000140 9a c3 a9 bc de 1c 2f 3b 7b 9c cb 3c 11 da 87 bc
       -0.020723153 0.0026720087 0.02485489 -0.016583474
000150 da a4 ad 3c 5a 8d f8 ba 6d 12 73 3c 28 e8 0a bc
       0.021196771 -0.0018963024 0.014835936 -0.008478202
000160 b8 d4 fc bc 5e 2a 5a bb 91 57 b4 bc 93 41 08 3c
       -0.030863151 -0.0033289413 -0.022014411 0.008316415
000170 71 6a 09 3d f7 bc 96 3c c8 06 de 39 0b e8 ed 3b
       0.033548776 0.018400652 0.00042348192 0.0072603277
000180 ea 0e da bb 21 79 85 3c c4 ab a1 3c 96 75 45 3d
       -0.00665461 0.01629311 0.019735225 0.04820784
000190 c2 be 8a bc 90 fd 1d bc c0 87 0f 3c 2f 37 e9 bc
       -0.016936664 -0.009642974 0.008760393 -0.028468696
0001a0 c9 4b 8f 3b 99 f7 20 3d 0b 74 d0 3c d3 ab 2e bd
       0.004373048 0.039298628 0.025445959 -0.042644333
0001b0 20 e7 01 3d 2a 82 9b 3c cb 15 2c bd e6 2b 49 bc
       0.03171456 0.018982965 -0.04201297 -0.012278533
0001c0 61 67 2d bc 6c f3 09 3c 4d c2 4f 3d 99 0b 4b bc
       -0.0105837295 0.008419853 0.05072241 -0.012392902
0001d0 0c 13 2f bd f0 67 ef 3c 7d 3d ae bc af cc 0c 3d
       -0.042742774 0.029224366 -0.021269554 0.03437489
0001e0 5d bf 09 bd 05 d5 a8 bc 88 0b b6 bc 8d ab 8b 3c
       -0.033629764 -0.020609388 -0.022222295 0.017049575
0001f0 84 fc 60 3c 5f 86 6a bc 4b 3a ec bc 19 52 06 bc
       0.013732079 -0.014314263 -0.02883639 -0.008198285
000200 c8 6b 60 bd 6c 46 ec 3c ea b0 38 3d d2 ed 78 bc
       -0.05479029 0.028842174 0.045090593 -0.0151934195
000210 7f cf 22 bd b7 c3 6a bb 79 24 2b bc 5c 87 c3 bc
       -0.039748665 -0.0035822222 -0.0104457075 -0.023868255
000220 81 34 19 bc 96 5c 2c 3a dc 83 5a 3c b1 c4 ae bc
       -0.009350897 0.00065750757 0.013337102 -0.021334024
000230 11 a8 81 3b 0a 25 28 3d d6 22 06 bc 0b cd ce 3b
       0.0039568027 0.04105095 -0.0081870165 0.006311064
000240 4a 75 3f bd fb 85 24 39 0c dd 3f bc d9 f5 09 bc
       -0.046742715 0.0001569017 -0.0117104165 -0.008420431
000250 9a d5 e1 bc 1e ed 5b bd a1 ab 00 bd 35 0e 89 bb
       -0.027567673 -0.05369293 -0.031413678 -0.004182602
000260 0e a8 3b 3d b5 83 0b bc d8 27 8e ba 6e f3 dd bc
       0.045814566 -0.008515288 -0.0010845615 -0.027093615
000270 7f a5 89 bc ac 6b 93 3c 3f 0a 83 3c ab e1 c0 3c
       -0.016802547 0.017995678 0.015996097 0.023545107
000280 07 1c b3 3c 97 1f 06 3c 0e fc ff 3b f8 72 02 39
       0.02186395 0.008186243 0.0078120297 0.00012440595
000290 61 da ba bc 53 37 54 3d 88 7a 66 ba 68 82 ef 3c
       -0.02280921 0.051810574 -0.0008792062 0.029236987
0002a0 07 be 1e 3b 54 62 d9 bc c2 e1 e9 3b f6 6e 20 3d
       0.0024222152 -0.026536144 0.007137508 0.03916832
0002b0 03 bb 1a bd 0b 6c 38 bd 1a c0 68 bc ae ac 05 3d
       -0.037776005 -0.045024913 -0.014205957 0.032635383
0002c0 4e b7 6a 3c 13 90 a6 3c 62 37 7c ba e0 66 f6 bb
       0.01432593 0.020332372 -0.000962129 -0.007519588
0002d0 b4 4c a9 3c 66 10 36 3d 7b 2d ab bb 06 43 3c bc
       0.020666458 0.044449233 -0.0052239276 -0.011490589
0002e0 a4 db d4 3c dc 74 d5 3c c6 41 86 3d 10 25 be bb
       0.025983639 0.0260567 0.06555514 -0.005802758
0002f0 50 05 21 bc b8 97 1e 3c de 82 7b bd 4e 47 d8 be
       -0.009827927 0.009679727 -0.0614041 -0.422419
000300 90 2a 47 bd 88 ff db 3c d4 bf 8f bd 37 59 c1 be
       -0.048624575 0.026855245 -0.0701901 -0.37763378
000310 96 f6 8b bc 20 ab 57 3d 36 b7 89 3d e6 82 87 bd
       -0.017085355 0.052653432 0.06724398 -0.06616764
000320 04 7c 4b 3d e8 7e 0f 3c ef 53 01 bd 52 f4 dc bc
       0.049678817 0.008758284 -0.031574186 -0.02697197
000330 7c ff 7e 3d f6 5c 3b 3d 9c 23 da 3c 24 1e 82 3d
       0.062255368 0.04574295 0.026628308 0.06353405
000340 24 52 fa bc 4e bb 60 bd d4 61 82 3c e7 1e 8a bd
       -0.030556746 -0.054866128 0.015915789 -0.067441754
000350 5d f4 88 bd 9a f7 86 bc 30 a9 46 bc 7c a9 77 3d
       -0.066872336 -0.016475488 -0.012125298 0.060464367
000360 e5 9e 57 bd fa 55 95 bd 68 5c ca 3c 7c 49 2c 3d
       -0.052641768 -0.07291789 0.024702266 0.042062268
000370 40 c1 0a 3b 40 56 9a 3b 5d 26 48 bd 40 cc 33 bc
       0.0021172315 0.004709989 -0.04886471 -0.01097399
000380 08 33 5e bd bd 82 29 bd 74 e6 fe bc 4c 76 9d bc
       -0.054247886 -0.041384447 -0.031115748 -0.019221447
000390 cc 43 06 3d 81 8f 76 bd 08 6f 73 bd 24 9e 7d bc
       0.0327795 -0.06019545 -0.05943206 -0.015479598
0003a0 98 05 70 bd 38 7f 6a 3d 87 94 07 bd f2 12 91 bd
       -0.058599085 0.05725023 -0.03310063 -0.07083692
0003b0 f1 ab 85 bd a0 92 19 3b 79 6c 4d bd d0 65 91 bc
       -0.06526936 0.0023433343 -0.050152276 -0.017748743
0003c0 19 3e b9 bb 37 fb 85 3d 3d 86 9c bc 42 0c d3 bb
       -0.0056531546 0.06542056 -0.019106979 -0.00644067
0003d0 27 b2 d1 bc 54 3d e1 3c fd 38 80 3c 78 31 3e bd
       -0.025597645 0.027495064 0.015652174 -0.046433896
0003e0 99 23 fd 3b 55 ab b5 bc 81 cf 48 bd bb 0c a2 bc
       0.007725191 -0.022176424 -0.049026016 -0.019781461
0003f0 96 3a af bc 1e 97 0e 3c cd dc f7 3c e8 ec 54 3d
       -0.02139024 0.008703021 0.030256653 0.051983744

bias f4 [3]
000000 d7 fc 58 3f d3 6b 47 bf 02 ae 7c be
       0.84760803 -0.778989 -0.24675754
