Netz.pt (torch_old, 102860 bytes, 4 tensors)

weight f4 [128, 184]
-0.042410478 -0.017705834 0.016332978 -0.059623964 0.036352232 0.019942366 0.037284575 0.07568748
0.05679258 0.008403823 0.06938477 0.064973295 0.068021 0.05772186 0.02417142 0.04154896
-0.0051677674 0.06437098 0.068870276 0.022600833 0.021256667 0.009894498 0.048019215 0.045938775
-0.0055507547 0.07160109 -0.012390107 -0.027387388 0.04600925 0.06903277 -0.01079411 -0.013546899
0.03406761 -0.0069117746 0.027732722 -0.03122164 0.0057104677 -0.0067171305 -0.063821904 -0.042219725
-0.0019958243 0.021728545 -0.03015741 -0.027435284 0.068380475 -0.024662904 0.06836222 0.01737915
-0.06917725 0.03367091 0.059271708 0.055221558 -0.03313783 -0.031898454 -0.050735295 -0.055393092
0.04562722 -0.014936096 -0.039086655 -0.028273093 -0.006920836 -0.03742299 -0.041641682 -0.04859171
-0.017213354 0.008834407 0.06838124 -0.06732373 -0.005424417 0.03934038 0.026844665 0.034449473
0.01481022 0.042756975 -0.0033047225 0.01951655 0.06266631 -0.056683287 -0.03522987 -0.013774369
-0.026532874 0.009140953 0.025962193 -0.026496638 0.018238928 -0.052545644 0.06986413 -0.034050304
0.03685373 -0.010698865 -0.017689988 -0.050029952 -0.061731666 0.05315721 0.057716504 0.0048533194
0.0007302854 -0.07039826 -0.011933239 -0.06100964 0.06622118 -0.028100891 -0.06293213 -0.052341267
0.03716419 -0.046177138 0.014212571 0.016873764 -0.021659547 0.0015575546 0.025678096 0.008143171
-0.021375721 -0.072998345 -0.013972442 -0.020938694 -0.025247743 -0.068108656 0.033117328 0.038841765
-0.005708179 -0.049396053 0.039042722 0.043138366 -0.030166447 -0.0053002248 -0.015084454 -0.045173526
-0.0395281 -0.018546293 0.0034662287 0.06916371 -0.024085656 -0.064701356 -0.060004503 -0.06875726
0.030163174 0.027298214 -0.019582389 -0.0134733 0.04052353 0.047184706 -0.018916218 0.0028266592
0.021610264 0.030681783 -0.06891413 -0.04187444 -0.009054129 -0.008309768 -0.020199928 -0.052485365
0.0005426343 0.027001658 -0.037483253 -0.06981666 0.056125175 0.015288826 0.029278332 0.07025238
-0.040471487 -0.06052481 -0.0040053865 0.07064281 -0.025062159 -0.016252834 0.005861209 -0.015153491
-0.057116583 0.025813665 0.051289428 0.06341525 -0.019641884 0.028446363 -0.03630349 -0.042322654
0.021928208 0.038168527 0.037964046 -0.02102265 0.039576717 -0.029021489 0.012455286 -0.056067534
0.06620772 -0.03371614 -0.0048034117 0.06545313 0.07338557 0.059712127 -0.0635925 -0.07103937
-0.018928291 -0.009388939 -0.057700746 -0.021230727 -0.0029459 -0.036580518 -0.0306946 0.059385836
0.035144858 -0.066894576 0.02063935 -0.012426678 -0.017404642 0.059280306 -0.059609856 -0.03213208
-0.057286404 -0.06693666 -0.006390825 0.03890963 -0.022106428 -0.038178902 0.05858892 -0.008727051
-0.046399765 0.06366028 0.07008517 0.034377426 0.01782962 -0.009332746 -0.07319629 -0.039190467
-0.06355159 -0.06351262 0.012374088 -0.057347767 0.06747022 -0.04849226 -0.05860277 0.06563549
-0.03605829 0.054433033 -0.007977106 -0.05890626 0.0356789 -0.03899557 -0.04457824 0.051717035
0.007979913 0.03330729 0.07308888 0.029347038 0.016904382 -0.021817818 -0.06294662 0.042438075
0.071138225 -0.013463734 -0.06460548 -0.04341765 -0.062520765 -0.04648643 0.014148729 0.066989556
00000000: 9cb6 2dbd d30b 91bc bdcc 853c 4238 74bd
00000010: 14e6 143d 2c5e a33c b6b7 183d 0a02 9b3d
00000020: 569f 683d 30b0 093c 9a19 8e3d b810 853d
00000030: 984e 8b3d c26d 6c3d 2403 c63c 3e2f 2a3d
00000040: 6056 a9bb efd4 833d dc0b 8d3d 6225 b93c
00000050: 7622 ae3c 881c 223c ccaf 443d 4c2a 3c3d
00000060: 1be3 b5bb 98a3 923d e0ff 4abc 845b e0bc
00000070: 3274 3c3d 0e61 8d3d c7d9 30bc d0f3 5dbc
00000080: 7a8a 0b3d 2b7c e2bb bc2f e33c 86c4 ffbc
00000090: e01e bb3b 601b dcbb 0fb5 82bd 97ee 2cbd
000000a0: 60cc 02bb 1000 b23c ac0c f7bc f6bf e0bc
000000b0: 100b 8c3d dc09 cabc 7e01 8c3d b85e 8e3c
000000c0: cdac 8dbd 82ea 093d e4c6 723d 0030 623d
000000d0: 89bb 07bd f4a7 02bd d0cf 4fbd dee3 62bd
000000e0: 9ce3 3a3d 87b6 74bc 5419 20bd f99c e7bc
000000f0: 2ec8 e2bb d948 19bd 7890 2abd 1a08 47bd
00000100: 0503 8dbc 30be 103c 770b 8c3d 06e1 89bd
00000110: 4fbf b1bb 6123 213d 58e9 db3c e41a 0d3d
00000120: 91a6 723c f021 2f3d 0b94 58bb 2ce1 9f3c
00000130: 3257 803d bc2c 68bd 324d 10bd e4ad 61bc
00000140: 785b d9bc f0c3 153c aaae d43c 7a0f d9bc
00000150: ce69 953c 1a3a 57bd ed14 8f3d 5578 0bbd
00000160: f0f3 163d 4b4a 2fbc 98ea 90bc 35ec 4cbd
00000170: 58da 7cbd 60bb 593d 2468 6c3d 9808 9f3b
00000180: a070 3f3a f72c 90bd a283 43bc 3fe5 79bd
00000190: f89e 873d d733 e6bc 90e2 80bd cc63 56bd
000001a0: 7a39 183d 3d24 3dbd d8db 683c d93a 8a3c
000001b0: 5d6f b1bc dc26 cc3a df5a d23c ef6a 053c
000001c0: 231c afbc 2880 95bd abec 64bc a087 abbc
000001d0: 5bd4 cebc 8d7c 8bbd 09a6 073d 8b18 1f3d
000001e0: ad0b bbbb 8453 4abd 43eb 1f3d dbb1 303d
000001f0: a01f f7bc 82ad adbb c924 77bc e007 39bd
00000200: 38e8 21bd 65ee 97bc ab29 633b b4a5 8d3d
00000210: 484f c5bc 2582 84bd 48c7 75bd 9bd0 8cbd
00000220: c318 f73c 81a0 df3c 3f6b a0bc 1ebf 5cbc
00000230: 00fc 253d c044 413d 2ff6 9abc 793f 393b
00000240: 0208 b13c 5d58 fb3c da22 8dbd 8884 2bbd
00000250: c557 14bc b125 08bc 527a a5bc e5fa 56bd
00000260: 923f 0e3a 9532 dd3c 0a88 19bd 09fc 8ebd
00000270: 83e3 653d fc7d 7a3c 1dd9 ef3c 7be0 8f3d
00000280: 6ec5 25bd dde8 77bd 9e3f 83bb 2dad 903d
00000290: 284f cdbc aa24 85bc 620f c03b 5946 78bc
000002a0: 14f3 69bd 2e77 d33c dd14 523d dbdf 813d
000002b0: 04e8 a0bc 5908 e93c f8b2 14bd 855a 2dbd
000002c0: c9a2 b33c 9a56 1c3d 3080 1b3d b137 acbc
000002d0: 321b 223d 79be edbc 4211 4c3c 12a7 65bd
000002e0: ea97 873d ef19 0abd f065 9dbb 4a0c 863d
000002f0: 2c4b 963d b494 743d c93c 82bd 177d 91bd
00000300: 810f 9bbc 10d4 19bc 9e57 6cbd 10ec adbc
00000310: 0010 41bb 74d5 15bd 3e73 fbbc 903e 733d
00000320: 0ef4 0f3d 0600 89bd db13 a93c 4499 4bbc
00000330: 2e94 8ebc e8cf 723d 7729 74bd ee9c 03bd
00000340: 26a5 6abd 1616 89bd 206a d1bb b45f 1f3d
00000350: 8a18 b5bc 7b61 1cbd effa 6f3d e8fb 0ebc
00000360: ae0d 3ebd 5260 823d d088 8f3d 58cf 0c3d
00000370: 6c0f 923c 60e8 18bc f0e7 95bd 2f86 20bd
00000380: 5627 82bd e812 82bd b0bc 4a3c 7ee5 6abd
00000390: d42d 8a3d d29f 46bd 7509 70bd e66b 863d
000003a0: dcb1 13bd 2cf5 5e3d 68b2 02bc b147 71bd
000003b0: 0a24 123d d2b9 1fbd ac97 36bd 3ed5 533d
000003c0: 2ebe 023c 3a6d 083d 9faf 953d 3369 f03c
000003d0: 0f7b 8a3c 48bb b2bc 28ea 80bd 8cd3 2d3d
000003e0: ebb0 913d fe96 5cbc e14f 84bd b5d6 31bd
000003f0: e30a 80bd 8e68 3ebd 12d0 673c d231 893d

bias f4 [128]
-0.02868697 -0.041117884 0.07282023 -0.04037094 0.058687903 -0.014328033 -0.003648634 0.0010534019
0.04412719 -0.04453921 0.055005036 0.03359811 0.025393745 0.03987301 0.02004908 -0.042272385
-0.014997711 0.00592601 -0.002346252 -0.028050821 -0.012559086 -0.052448776 -0.037475243 -0.005815157
0.03536446 0.0010665262 0.03639044 -0.007781254 0.0016303211 0.053626984 -0.031128947 -0.018551294
-0.03575529 -0.027834443 -0.034041338 -0.0144916335 0.032190338 -0.01309809 -0.050185256 -0.0005011519
0.031885196 -0.03707176 0.02464682 0.033196267 0.050431617 0.06471846 -0.006910249 -0.033100504
-0.023827655 0.00014072485 -0.046129875 0.00761369 -0.027525991 0.034121245 0.005584408 -0.042431645
-0.01758967 0.0072408235 0.056729116 0.047914837 -0.030106965 0.0147606395 0.025926378 -0.036716018
-0.04044512 -0.04295192 0.059946973 0.022110822 0.028760675 -0.0563529 -0.053319693 0.015362476
-0.007956028 -0.04063163 0.04242824 0.024133595 0.045251403 -0.0009298937 0.007621818 -0.01882586
-0.012443757 -0.011049525 0.0023300084 0.0010428439 -0.0076774457 -0.045113508 -0.04355559 -0.010440324
-0.050488222 -0.051531658 -0.015841518 -0.025317868 0.01990903 -0.01232531 -0.032435797 -0.019840524
0.010262106 0.0067796786 -0.022256942 0.01171506 0.031560156 -0.022879262 0.009178564 -0.04893293
0.034867387 -0.046185695 0.019669518 -0.029405901 -0.056983624 -0.026926363 -0.010054622 -0.027912213
0.019059045 -0.012340526 0.01115328 0.011819717 -0.03478559 -0.032487676 -0.056889243 -0.012638271
0.027779533 -0.047605593 0.027076261 -0.037577577 -0.0077589825 0.042543806 0.040585726 -0.04052946
00000000: f000 ebbc 3a6b 28bd c622 953d 005c 25bd
00000010: ba62 703d 20c0 6abc ec1d 6fbb 4d12 8a3a
00000020: b6be 343d bf6e 36bd f64c 613d 2c9e 093d
00000030: 8b06 d03c e251 233d f83d a43c cf25 2dbd
00000040: f6b8 75bc fa2e c23b 94c3 19bb d6ca e5bc
00000050: a0c4 4dbc 87d4 56bd a47f 19bd 138d bebb
00000060: 53da 103d aeca 8b3a 240e 153d e4f9 febb
00000070: 80b0 d53a f8a7 5b3d 2202 ffbc e2f8 97bc
00000080: 2474 12bd 0f05 e4bc ee6e 0bbd 516e 6dbc
00000090: 04da 033d 5f99 56bc 0e8f 4dbd bc5f 03ba
000000a0: 0d9a 023d 8fd8 17bd 21e8 c93c cff8 073d
000000b0: 6291 4e3d 1d8b 843d 5f6f e2bb 6594 07bd
000000c0: 3732 c3bc 8a8f 1339 aef2 3cbd 437c f93b
000000d0: 307e e1bc b8c2 0b3d 69fd b63b cecc 2dbd
000000e0: 3618 90bc 6e44 ed3b ca5c 683d 5942 443d
000000f0: e2a2 f6bc 9cd6 713c 8e63 d43c 8963 16bd
00000100: c8a9 25bd 5aee 2fbd f58a 753d c121 b53c
00000110: 829b eb3c 4cd2 66bd c065 5abd e5b2 7b3c
00000120: 005a 02bc 5a6d 26bd 3cc9 2d3d d1b3 c53c
00000130: 8959 393d 1cc4 73ba 72c0 f93b b138 9abc
00000140: e6e0 4bbc 1109 35bc 0eb3 183b 09b0 883a
00000150: 1593 fbbb f1c8 38bd 5967 32bd e50d 2bbc
00000160: bdcc 4ebd dc12 53bd 12c6 81bc 6b67 cfbc
00000170: 4318 a33c 19f0 49bc 66db 04bd 9888 a2bc
00000180: 6422 283c 1128 de3b 3154 b6bc 86f0 3f3c
00000190: 3945 013d 4a6d bbbc b061 163c e56d 48bd
000001a0: 1bd1 0e3d 362d 3dbd f821 a13c a5e4 f0bc
000001b0: a967 69bd ad94 dcbc 24bc 24bc 27a8 e4bc
000001c0: b721 9c3c eb2f 4abc 3fbc 363c 7ca7 413c
000001d0: 567b 0ebd cc11 05bd b204 69bd c010 4fbc
000001e0: e791 e33c 15fe 42bd 09cf dd3c f2ea 19bd
000001f0: 103f febb 6a42 2e3d 383d 263d 3802 26bd

weight f4 [3, 184]
0.03227385 -0.061052997 -0.043407433 0.04871977 -0.0055264756 0.012664124 -0.04540644 0.44513664
-0.004402153 -0.056856915 0.059384704 0.40846756 0.06545077 0.038072728 0.008461811 0.04656855
-0.039234802 -0.052332386 0.0016938671 -0.056403816 -0.052720644 -0.0034762993 0.037566796 -0.02504811
-0.036801536 0.002986215 0.066054136 0.014255039 -0.030689105 0.060978472 0.04115147 -0.044535257
0.07114059 0.0450307 -0.04965038 -0.026658062 0.05299981 0.026172407 -0.019483954 0.0639749
-0.07335629 0.027787328 -0.06106807 -0.020926602 -0.04472253 0.042331688 -0.07277394 -0.059199426
-0.050254297 0.073648944 0.0011481568 0.06673555 0.023804985 -0.071418926 -0.06930091 -0.019414745
0.019000031 0.0036807628 0.01986832 -0.058174383 0.010277996 0.009030807 0.029546697 -0.026303058
0.022023553 -0.018024081 0.0071096923 0.02385641 -0.005538542 0.030211058 0.03546333 0.022192823
-0.005842143 -0.030820288 -0.016320188 0.038779963 0.024692103 -0.0063670212 -0.04833743 0.037010085
-0.025892772 0.0017460911 0.01056221 -0.019787503 0.0450607 -0.00040912407 0.00277107 -0.0081210835
-0.036152955 0.0035441287 -0.026476355 -0.008509152 0.046084747 0.035924233 -0.004672233 -0.022294978
-0.0090874415 0.021109892 0.025128027 0.07435803 -0.022838777 -0.0073370873 -0.009380935 -0.054983538
0.021149555 0.06214192 0.04400158 -0.03552991 0.016575247 0.011919437 -0.05491811 -0.025138015
-0.023762269 0.019195614 0.055427913 -0.0011690115 -0.05113403 0.038654488 -0.0039407345 0.018745948
-0.03578166 -0.04902333 -0.014825594 0.02901876 0.014639506 -0.028762782 -0.06502549 0.003241514
-0.057943076 0.001457981 0.05851366 -0.015620186 -0.033185508 -0.0009932194 -0.007190834 -0.031707007
-0.019136842 -0.02547902 0.025093498 -0.017475914 -0.0082851695 0.052121244 -0.00860347 0.0072420975
-0.062186934 -0.01096107 -0.014008621 -0.017118443 -0.013001352 -0.060043897 -0.031961218 -0.017361064
0.037338074 -0.007623937 -0.015091521 -0.028556328 -0.010443489 0.01077019 0.01048895 0.010020708
0.040681366 -0.010856639 -0.014437731 -0.022414114 -0.044228084 0.035335384 -0.0024026027 0.039456382
0.011123537 -0.023476152 0.0005943545 0.05260261 -0.05100076 -0.052772336 -0.020148195 0.042795017
0.01745512 0.014976494 -0.0049719824 -0.02824136 0.019802334 0.060925193 0.009074084 -0.012566659
0.025983639 0.0260567 0.06555514 -0.005802758 -0.009827927 0.009679727 -0.0614041 -0.49435845
-0.048624575 0.026855245 -0.0701901 -0.26795816 -0.017085355 0.052653432 0.06724398 -0.06616764
0.049678817 0.008758284 -0.031574186 -0.02697197 0.062255368 0.04574295 0.026628308 0.06353405
-0.030556746 -0.054866128 0.015915789 -0.067441754 -0.066872336 -0.016475488 -0.012125298 0.060464367
-0.052641768 -0.07291789 0.024702266 0.042062268 0.0021172315 0.004709989 -0.04886471 -0.01097399
-0.054247886 -0.041384447 -0.031115748 -0.019221447 0.0327795 -0.06019545 -0.05943206 -0.015479598
-0.058599085 0.05725023 -0.03310063 -0.07083692 -0.06526936 0.0023433343 -0.050152276 -0.017748743
-0.020058356 0.0928741 -0.038310245 0.022774193 -0.034671523 0.034193143 0.015385235 -0.048260882
0.008786351 -0.030820962 -0.07882549 -0.040513463 -0.029756386 -0.013193813 0.032910474 0.06363901
00000000: 9631 043d b512 7abd fecb 31bd 628e 473d
00000010: 7017 b5bb 307d 4f3c 1afc 39bd f3e8 e33e
00000020: f03f 90bb cce2 68bd 603d 733d a922 d13e
00000030: 0e0b 863d 26f2 1b3d 68a3 0a3c aabe 3e3d
00000040: acb4 20bd 7c5a 56bd c004 de3a b007 67bd
00000050: 9af1 57bd a0d2 63bb a4df 193d b231 cdbc
00000060: 35bd 16bd 60b4 433b 6447 873d f88d 693c
00000070: b867 fbbc 90c4 793d 728e 283d 9a6a 36bd
00000080: 28b2 913d 1c72 383d 325e 4bbd 0262 dabc
00000090: 5416 593d 8467 d63c d09c 9fbc 4605 833d
000000a0: d33b 96bd 40a2 e33c 8322 7abd 446e abbc
000000b0: f92e 37bd fe63 2d3d 810a 95bd 197b 72bd
000000c0: 73d7 4dbd 42d5 963d c07d 963a a6ac 883d
000000d0: ac02 c33c 1644 92bd a3ed 8dbd ac0b 9fbc
000000e0: f4a5 9b3c f438 713b e3c2 a23c 4348 6ebd
000000f0: 0a65 283c f3f5 133c ea0b f23c 8379 d7bc
00000100: bd6a b43c 3da7 93bc 6cf8 e83b 856e c33c
00000110: a87c b5bb 2e7d f73c ff41 113d b9cd b53c
00000120: 736f bfbb d47a fcbc eab1 85bc bdd7 1e3d
00000130: 1847 ca3c 72a2 d0bb 78fd 45bd e397 173d
00000140: 141d d4bc 18dd e43a 1f0d 2d3c 6719 a2bc
00000150: 9291 383d b47f d6b9 d79a 353b 4b0e 05bc
00000160: 1f15 14bd 9d44 683b f1e4 d8bc f869 0bbc
00000170: 5cc3 3c3d 4a25 133d 8819 99bb f5a3 b6bc
00000180: 7ee3 14bc a7ee ac3c 4bd9 cd3c 0649 983d
00000190: 6318 bbbc f36b f0bb 7eb2 19bc 6b36 61bd
000001a0: d541 ad3c 8788 7e3d 003b 343d d087 11bd
000001b0: d0c8 873c be49 433c d0f1 60bd 3dee cdbc
000001c0: 17a9 c2bc 1f40 9d3c 6108 633d 8439 99ba
000001d0: eb71 51bd 2b54 1e3d 4721 81bb 1a91 993c
000001e0: ca8f 12bd b0cc 48bd 0ce7 72bc c0b8 ed3c
000001f0: 8ada 6f3c ed9f ebbc 162c 85bd 956f 543b
00000200: b855 6dbd b919 bf3a 05ac 6f3d cfeb 7fbc
00000210: 87ed 07bd ea2e 82ba 16a1 ebbb 35df 01bd
00000220: dec4 9cbc 61b9 d0bc e190 cd3c a629 8fbc
00000230: 85be 07bc 167d 553d 92f5 0cbc 1e4f ed3b
00000240: bab7 7ebd 0f96 33bc 6a84 65bc fa3b 8cbc
00000250: 9f03 55bc 97f0 75bd c4e9 02bd ca38 8ebc
00000260: cfef 183d 38d2 f9bb 6d42 77bc f6ee e9bc
00000270: 2b1b 2bbc 7375 303c d8d9 2b3c e52d 243c
00000280: 81a1 263d 0be0 31bc 3c8c 6cbc ce9d b7bc
00000290: 8228 35bd d6bb 103d fc74 1dbb 049d 213d
000002a0: 7f3f 363c 0f51 c0bc 75ce 1b3a d675 573d
000002b0: 2ce6 50bd ce27 58bd d40d a5bc d449 2f3d
000002c0: 0afe 8e3c f85f 753c 03ec a2bb 6d5a e7bc
000002d0: 8138 a23c b28c 793d 78ab 143c 63e4 4dbc
000002e0: a4db d43c dc74 d53c c641 863d 1025 bebb
000002f0: 5005 21bc b897 1e3c de82 7bbd 8d1c fdbe
00000300: 902a 47bd 88ff db3c d4bf 8fbd d031 89be
00000310: 96f6 8bbc 20ab 573d 36b7 893d e682 87bd
00000320: 047c 4b3d e87e 0f3c ef53 01bd 52f4 dcbc
00000330: 7cff 7e3d f65c 3b3d 9c23 da3c 241e 823d
00000340: 2452 fabc 4ebb 60bd d461 823c e71e 8abd
00000350: 5df4 88bd 9af7 86bc 30a9 46bc 7ca9 773d
00000360: e59e 57bd fa55 95bd 685c ca3c 7c49 2c3d
00000370: 40c1 0a3b 4056 9a3b 5d26 48bd 40cc 33bc
00000380: 0833 5ebd bd82 29bd 74e6 febc 4c76 9dbc
00000390: cc43 063d 818f 76bd 086f 73bd 249e 7dbc
000003a0: 9805 70bd 387f 6a3d 8794 07bd f212 91bd
000003b0: f1ab 85bd a092 193b 796c 4dbd d065 91bc
000003c0: 6c51 a4bc c734 be3d 34eb 1cbd f290 ba3c
000003d0: ba03 0ebd 1c0e 0c3d 5a12 7c3c 34ad 45bd
000003e0: a1f4 0f3c 3e7c fcbc 426f a1bd 72f1 25bd
000003f0: aac3 f3bc dd2a 58bc 22cd 063d 2b55 823d

bias f4 [3]
0.82600105 -0.7412554 -0.26287755
00000000: ce74 533f eac2 3dbf e397 86be
