Netz.pt (torch_old, 102860 bytes, 4 tensors)

weight f4 [128, 184]
00000000: 9b71 34bd fffb 8cbc 8709 843c ba37 74bd
00000010: 854d 153d 2c5e a33c b6b7 183d f187 8d3d
00000020: 78de 673d 30b0 093c 9a19 8e3d b810 853d
00000030: 984e 8b3d 3806 6c3d 2403 c63c 3e2f 2a3d
00000040: 6056 a9bb 0a23 843d 125b 8e3d 8017 bf3c
00000050: db12 9f3c 881c 223c ccaf 443d 4c2a 3c3d
00000060: 8a86 b5bb 98a3 923d e0ff 4abc 845b e0bc
00000070: 3274 3c3d 8f52 8d3d 01ef 30bc d0f3 5dbc
00000080: 7a8a 0b3d 937e e2bb bc2f e33c 86c4 ffbc
00000090: e01e bb3b 601b dcbb 0fb5 82bd 97ee 2cbd
000000a0: 60cc 02bb 1000 b23c ac0c f7bc f6bf e0bc
000000b0: 100b 8c3d dc09 cabc 7e01 8c3d b85e 8e3c
000000c0: cdac 8dbd 82ea 093d e4c6 723d 0030 623d
000000d0: 89bb 07bd f4a7 02bd d0cf 4fbd e7da 62bd
000000e0: 9d32 3a3d 3a3e 70bc 0716 21bd 8cc4 ddbc
000000f0: e627 f5bb d5dd 19bd 4abb 2abd 470f 46bd
00000100: dfd9 8bbc 5414 113c 9ecf 8a3d 21eb 89bd
00000110: 70c2 c0bb 35af 1b3d 6857 de3c 65bf 0e3d
00000120: 7b2e 6f3c afaa 303d 3e2c 3abb 112b 9e3c
00000130: 0869 7f3d 23e2 64bd 15a9 10bd 5ccd 59bc
00000140: 96e9 d6bc d980 0c3c daae d83c b783 d6bc
00000150: c191 923c 7180 58bd 86e3 8e3d 0f8e 0bbd
00000160: 30f1 173d ed63 30bc b79e 8cbc 5f94 49bd
00000170: fe5a 7ebd 2d3e 5a3d c8fe 703d 0229 983b
00000180: c565 1b39 bfda 8fbd 95a2 4abc d403 7bbd
00000190: e98e 863d b14a edbc 7306 81bd e1e1 56bd
000001a0: afc7 183d 9b93 41bd f3d7 693c b018 8b3c
000001b0: df4a acbc 4b21 813a 5aca d73c 33ef 123c
000001c0: d456 acbc e1c5 95bd 7188 78bc fb52 acbc
000001d0: ce02 cbbc d1ad 8abd 09ee 043d 542d 243d
000001e0: b98e babb 1991 49bd 2c54 1c3d 1ac4 313d
000001f0: 76e1 febc 88b9 99bb acfa 6cbc 4905 37bd
00000200: 0bc9 21bd 0017 8ebc 0d22 033b 4fc8 8d3d
00000210: fb91 c4bc 0a02 84bd cb3e 73bd 03fb 8dbd
00000220: 00e2 f63c 124b e43c 795e a3bc 9ae7 60bc
00000230: 7e48 263d bc69 423d 132c 94bc 9989 3a3b
00000240: 66dd b43c ab2b 013d 0acc 8bbd 4a85 2ebd
00000250: 4e99 1dbc b8eb 09bc 346b 9fbc acc9 57bd
00000260: 5eac 0e3a 3184 e23c 0798 1abd a4f6 8dbd
00000270: 5a3c 673d d159 823c 0bae f03c 43e9 903d
00000280: b6f0 27bd 94d3 74bd 2e15 88bb aa81 913d
00000290: ab85 c3bc c56f 85bc 0562 b63b b75b 81bc
000002a0: 9892 69bd e375 d03c 795a 503d c50d 823d
000002b0: e4c5 9fbc a949 eb3c f0a1 13bd 81fe 2ebd
000002c0: 8585 b33c 423c 1c3d 7292 183d 5b88 a4bc
000002d0: 6686 203d a7e3 ebbc 861e 453c 69f8 64bd
000002e0: b44e 863d e32c 0bbd 403b a43b 3d0c 863d
000002f0: bbfa 953d b494 743d c93c 82bd 93be 74bd
00000300: fbf6 98bc 10d4 19bc 9e57 6cbd 10ec adbc
00000310: 0010 41bb a304 15bd 3e73 fbbc 903e 733d
00000320: 0ef4 0f3d 1e5f 8bbd 3645 a53c cc83 58bc
00000330: b2c9 adbc e8cf 723d 7729 74bd ee9c 03bd
00000340: 1aa2 6abd 1616 89bd 206a d1bb b45f 1f3d
00000350: 8a18 b5bc 942a 1cbd 7f00 703d e8fb 0ebc
00000360: ae0d 3ebd 865e 823d d088 8f3d 58cf 0c3d
00000370: 6c0f 923c 60e8 18bc f0e7 95bd 2f86 20bd
00000380: 5627 82bd e812 82bd b0bc 4a3c 7ee5 6abd
00000390: d42d 8a3d d29f 46bd 7509 70bd e66b 863d
000003a0: dcb1 13bd 2cf5 5e3d 68b2 02bc b147 71bd
000003b0: 0a24 123d d2b9 1fbd ac97 36bd d6c7 533d
000003c0: 993e f73b 548a 093d 2751 953d 9890 e13c
000003d0: 399a 843c 6ff9 b4bc 5730 80bd 6a5f 293d
000003e0: 601b 903d 020c 56bc 06f6 82bd cf28 34bd
000003f0: 802f 7ebd 6ad5 37bd 3b2a 6b3c b9e5 873d
-0.044053655 -0.017210005 0.016117824 -0.059623457 0.03645088 0.019942366 0.037284575 0.069106944
0.056608647 0.008403823 0.06938477 0.064973295 0.068021 0.05762312 0.02417142 0.04154896
-0.0051677674 0.06451996 0.06950964 0.023326635 0.01941817 0.009894498 0.048019215 0.045938775
-0.00553972 0.07160109 -0.012390107 -0.027387388 0.04600925 0.069005124 -0.0107991705 -0.013546899
0.03406761 -0.0069120615 0.027732722 -0.03122164 0.0057104677 -0.0067171305 -0.063821904 -0.042219725
-0.0019958243 0.021728545 -0.03015741 -0.027435284 0.068380475 -0.024662904 0.06836222 0.01737915
-0.06917725 0.03367091 0.059271708 0.055221558 -0.03313783 -0.031898454 -0.050735295 -0.055384543
0.045458425 -0.0146632735 -0.039327648 -0.02707126 -0.007481563 -0.03756507 -0.04168252 -0.048354413
-0.017071662 0.008854944 0.06777881 -0.067343004 -0.0058825538 0.038008887 0.027141288 0.034850497
0.014598484 0.043131527 -0.0028407718 0.019307645 0.062356025 -0.055879723 -0.0353175 -0.01329359
-0.02623443 0.008575642 0.026450563 -0.026185853 0.017891767 -0.052856866 0.069769904 -0.034071025
0.03709525 -0.010766012 -0.017165525 -0.049213763 -0.062098496 0.05328195 0.05883673 0.0046435604
0.00014819864 -0.070241444 -0.012367864 -0.061282948 0.06570227 -0.02896628 -0.06300058 -0.05246151
0.037299808 -0.04725991 0.014272678 0.016979545 -0.021031795 0.0009851841 0.026341606 0.008968162
-0.021037497 -0.07313133 -0.015169249 -0.021035662 -0.02478161 -0.06771434 0.03245357 0.04008229
-0.0056932834 -0.04921064 0.03816621 0.043399908 -0.031113368 -0.0046913065 -0.014464062 -0.044682775
-0.03949837 -0.017344952 0.002000931 0.069229715 -0.02399539 -0.064457014 -0.059386056 -0.06932642
0.030137062 0.027867828 -0.019942509 -0.013727093 0.040596478 0.047464117 -0.018087422 0.0028463362
0.022078227 0.031535786 -0.06826027 -0.042607583 -0.00961907 -0.008418016 -0.019460298 -0.052682564
0.0005442555 0.027650924 -0.03774264 -0.069318086 0.05645404 0.015911968 0.029379865 0.07075741
-0.041001044 -0.05977209 -0.0041529154 0.071048096 -0.023867449 -0.016288647 0.005565884 -0.015790803
-0.05702457 0.025446838 0.05086753 0.063502826 -0.019503541 0.028721647 -0.036043108 -0.042723183
0.021914253 0.038143404 0.037249036 -0.02008455 0.039190672 -0.028795077 0.012031203 -0.055900965
0.0655798 -0.033978354 0.005011946 0.06545303 0.07323214 0.059712127 -0.0635925 -0.05975206
-0.018672457 -0.009388939 -0.057700746 -0.021230727 -0.0029459 -0.036381375 -0.0306946 0.059385836
0.035144858 -0.068052515 0.020174604 -0.013215017 -0.02121434 0.059280306 -0.059609856 -0.03213208
-0.0572835 -0.06693666 -0.006390825 0.03890963 -0.022106428 -0.038126543 0.058594223 -0.008727051
-0.046399765 0.06365685 0.07008517 0.034377426 0.01782962 -0.009332746 -0.07319629 -0.039190467
-0.06355159 -0.06351262 0.012374088 -0.057347767 0.06747022 -0.04849226 -0.05860277 0.06563549
-0.03605829 0.054433033 -0.007977106 -0.05890626 0.0356789 -0.03899557 -0.04457824 0.05170425
0.007545304 0.033579186 0.07290869 0.027534768 0.01618682 -0.022091595 -0.0625922 0.04135076
0.07036471 -0.013064386 -0.063945815 -0.04398423 -0.06205702 -0.044881262 0.01435333 0.06635613

bias f4 [128]
00000000: aa29 18bd 785a dbbc 22cf 823d 7f9f f2bc
00000010: 8a74 493d 430e 4abc b402 25bc 91a5 32bb
00000020: aec1 1d3d 2fb1 2bbd c152 2c3d 81ea ba3c
00000030: dc1d 7a3c 4505 083d 40fd 923c 58d8 fbbc
00000040: 7eb2 83bc dbac 453c 0f5a a4bb afc8 a9bc
00000050: 9675 a9bc d036 37bd 6366 0bbd 16a1 35bc
00000060: e0c0 283d 0d47 ceb7 fc3a 243d a384 c7ba
00000070: 078d 44bc e36e 5e3d 80eb c9bc de6f 9ebc
00000080: b0fe febc 6d9f f4bc a090 d1bc 22e5 0bbc
00000090: c500 8d3c 2422 c1bc 53f3 32bd 34a8 993c
000000a0: 5180 ee3c b71a 2abd 10cd a73c bf30 883c
000000b0: 277b 533d 3309 6c3d 8623 923b 1c53 67bc
000000c0: 8e19 05bd 1c6f 74bc bb8b 5fbd 3e7b 9a39
000000d0: 821d 9abc 70f2 023d 5aa1 7a3c 63e2 d5bc
000000e0: ae9c ebbb 6a32 e039 d3c4 353d fad6 323d
000000f0: 448e b6bc 1a64 2e3c 2c9d 0e3c e101 cfbc
00000100: 5ac3 1fbd 188e d3bc 0b39 683d 9237 403c
00000110: cfae ec3c 5342 53bd 7a05 07bd d692 4d3c
00000120: 66b3 9bbb e8f9 babc 7e72 e33c fdb3 c53c
00000130: 5949 243d f137 9b3b 6ba8 8b3b cfc7 47bc
00000140: 7d34 37bb 5ad7 e33b fb2c d3bb 0d7d e6bb
00000150: daab 103b 8ae0 4abd 3aca 2abd 7332 09bc
00000160: deb5 1ebd af7f 1abd 3ed4 34bc ce0f 5abc
00000170: f1c4 583c 8aed 5fbb e478 15bd d80d 19bc
00000180: bb38 603c 7fe5 113c 2dff 77bc 2602 813c
00000190: ad64 b63c df6e a1bc c5c7 2a3c 526b 1cbd
000001a0: e662 863c 8870 febc 4da6 fd3c acba 99bc
000001b0: 28a2 1abd 93b9 6bbc a44c 98bb b4ba eabc
000001c0: 9345 363c c506 53bc 55f8 713c a8c9 313b
000001d0: 0bfc b3bc b4ab e2bc 262f 57bd 80f8 4dbc
000001e0: b7d6 8d3c e23b 36bd 1517 e53c ea3e b7bc
000001f0: 8371 37bc e050 0a3d 7864 f73c 87af 22bd
-0.03714911 -0.026776537 0.06387164 -0.02961707 0.049183406 -0.012332502 -0.010071445 -0.002725933
0.038514785 -0.041917022 0.042071108 0.022816898 0.015265908 0.03320815 0.017943025 -0.03074281
-0.016076323 0.012065138 -0.0050156186 -0.020725576 -0.020685952 -0.044730008 -0.03403319 -0.011085769
0.041199565 -2.45902e-05 0.040095314 -0.0015222024 -0.011996514 0.05430497 -0.024648428 -0.019340452
-0.031127304 -0.029861176 -0.025581658 -0.008538516 0.017212281 -0.02357585 -0.043689083 0.018756963
0.02911392 -0.041529384 0.020483524 0.016624806 0.05163112 0.05762596 0.004459801 -0.014118936
-0.032495074 -0.014919069 -0.054576617 0.00029464992 -0.018812899 0.031969488 0.015297258 -0.026108926
-0.0071903085 0.0004276217 0.04437716 0.04366205 -0.022284634 0.010643983 0.008704465 -0.02526945
-0.03900466 -0.025824592 0.056695025 0.011731999 0.028891949 -0.051576924 -0.032964207 0.012547215
-0.0047516106 -0.022824243 0.027764555 0.024133677 0.040109012 0.0047368933 0.0042620203 -0.012193634
-0.002795487 0.006953162 -0.006444571 -0.00703395 0.0022075088 -0.049530543 -0.041696765 -0.008373844
-0.03874766 -0.037719425 -0.011036931 -0.013309432 0.013230548 -0.0034168684 -0.036492243 -0.0093416795
0.013685401 0.008904814 -0.015136522 0.015748095 0.022264803 -0.019706188 0.010423605 -0.038188286
0.01640458 -0.031059518 0.030963087 -0.01876577 -0.0377523 -0.014387506 -0.004647808 -0.02865348
0.011124986 -0.012880032 0.01476868 0.0027128253 -0.02197077 -0.027669765 -0.0525352 -0.012571454
0.017314298 -0.044490702 0.027965108 -0.022368867 -0.011196497 0.033768535 0.030199274 -0.039718177

weight f4 [3, 184]
00000000: 9631 043d b512 7abd fecb 31bd 628e 473d
00000010: 7017 b5bb 307d 4f3c 1afc 39bd da73 f63e
00000020: f03f 90bb cce2 68bd 603d 733d 7fd4 c13e
00000030: 0e0b 863d 26f2 1b3d 68a3 0a3c aabe 3e3d
00000040: acb4 20bd 7c5a 56bd c004 de3a b007 67bd
00000050: 9af1 57bd a0d2 63bb a4df 193d b231 cdbc
00000060: 35bd 16bd 60b4 433b 6447 873d f88d 693c
00000070: b867 fbbc 90c4 793d 728e 283d 9a6a 36bd
00000080: 28b2 913d 1c72 383d 325e 4bbd 0262 dabc
00000090: 5416 593d 8467 d63c d09c 9fbc 4605 833d
000000a0: d33b 96bd 40a2 e33c 8322 7abd 446e abbc
000000b0: f92e 37bd fe63 2d3d 810a 95bd 197b 72bd
000000c0: 73d7 4dbd 42d5 963d c07d 963a a6ac 883d
000000d0: ac02 c33c 1644 92bd a3ed 8dbd ac0b 9fbc
000000e0: 4a01 163c dc41 e43c 6941 d93b a257 2bbd
000000f0: 57a5 50bb fae8 3e3c bf0f af3c a6c5 fbbc
00000100: ab79 753c 4ba4 6abc 6061 edbb ddef b93b
00000110: ea49 46bc 8e41 cf3c 6073 093d e09b 0a3d
00000120: 21a1 fabb 8876 f2bc 9118 78bc 86ed 403d
00000130: cb00 e83b 06c6 83bb 1b5c 3dbd deb5 d03c
00000140: 1346 b6bc 8eaa e93a cebe c93c 7efb 80bc
00000150: d62f b13c a986 cdba 1ea7 763c bafe 14bc
00000160: c178 01bd dc55 33bb 1b61 afbc 41d1 0f3c
00000170: 6707 0a3d 30c2 9c3c 5c66 c23a 7e27 f03b
00000180: 6eb5 11bc 90bb 813c 412e 9e3c 5645 483d
00000190: bcc4 94bc 6edb 1cbc c958 233c 5161 e7bc
000001a0: 68eb ad3b c0d7 1e3d 6f53 d53c 3729 2fbd
000001b0: 5ca0 003d d3cd 953c 3b11 28bd df57 2abc
000001c0: 3b4f 27bc d63b 2a3c 809e 443d 3bc2 40bc
000001d0: 0436 2abd c44c ea3c d1f6 aebc 50ee 0b3d
000001e0: 4cda 0abd f2ee aebc 7fe9 c0bc 2a53 963c
000001f0: 2056 5c3c 6781 80bc 5323 e9bc 9baf d0bb
00000200: 32c6 60bd a1e6 f23c 447c 343d e521 62bc
00000210: c184 23bd fb01 27bb e286 28bc 54ae c3bc
00000220: bae0 fbbb 0c03 e63a 31f0 783c 40d4 9ebc
00000230: 9455 b23b 6ec8 2a3d b366 f6bb 1391 d13b
00000240: 050a 39bd e7fb 043b 6865 46bc 4b53 12bc
00000250: a8c0 ecbc 3461 5fbd ceff 02bd 24e9 3cbb
00000260: 1e95 3e3d 9b29 1bbc e84d 29bb 1acc e7bc
00000270: 9306 96bc 35c2 8a3c c2be 833c c031 c63c
00000280: bd4b a03c 1ab1 fa3b c77e fb3b 23df 38bb
00000290: 5bf3 b1bc 6293 553d b802 9eba 18d5 eb3c
000002a0: b726 5c3b 3e94 c4bc acde e23b 9d44 243d
000002b0: cd7c 18bd e57a 36bd 393b 58bc 4f03 093d
000002c0: e9fb 5f3c f9db a63c 915e a7b9 a8d7 f0bb
000002d0: 1bde a13c 94f2 383d 2f8d 92bb d1d0 41bc
000002e0: a4db d43c dc74 d53c c641 863d 1025 bebb
000002f0: 5005 21bc b897 1e3c de82 7bbd 6f73 e9be
00000300: 902a 47bd 88ff db3c d4bf 8fbd a5fd aabe
00000310: 96f6 8bbc 20ab 573d 36b7 893d e682 87bd
00000320: 047c 4b3d e87e 0f3c ef53 01bd 52f4 dcbc
00000330: 7cff 7e3d f65c 3b3d 9c23 da3c 241e 823d
00000340: 2452 fabc 4ebb 60bd d461 823c e71e 8abd
00000350: 5df4 88bd 9af7 86bc 30a9 46bc 7ca9 773d
00000360: e59e 57bd fa55 95bd 685c ca3c 7c49 2c3d
00000370: 40c1 0a3b 4056 9a3b 5d26 48bd 40cc 33bc
00000380: 0833 5ebd bd82 29bd 74e6 febc 4c76 9dbc
00000390: cc43 063d 818f 76bd 086f 73bd 249e 7dbc
000003a0: 9805 70bd 387f 6a3d 8794 07bd f212 91bd
000003b0: f1ab 85bd a092 193b 796c 4dbd d065 91bc
000003c0: 565c debb 2be1 8a3d 32c3 aabc 641a 59bb
000003d0: 08f7 d3bc 0ef2 e43c 9c4c 853c 2895 3fbd
000003e0: 88f4 023c 846b c5bc 8795 5abd 0469 b6bc
000003f0: 09c8 b0bc 790c ac3b 5bdd f93c 9cc8 593d
0.03227385 -0.061052997 -0.043407433 0.04871977 -0.0055264756 0.012664124 -0.04540644 0.48135263
-0.004402153 -0.056856915 0.059384704 0.37857434 0.06545077 0.038072728 0.008461811 0.04656855
-0.039234802 -0.052332386 0.0016938671 -0.056403816 -0.052720644 -0.0034762993 0.037566796 -0.02504811
-0.036801536 0.002986215 0.066054136 0.014255039 -0.030689105 0.060978472 0.04115147 -0.044535257
0.07114059 0.0450307 -0.04965038 -0.026658062 0.05299981 0.026172407 -0.019483954 0.0639749
-0.07335629 0.027787328 -0.06106807 -0.020926602 -0.04472253 0.042331688 -0.07277394 -0.059199426
-0.050254297 0.073648944 0.0011481568 0.06673555 0.023804985 -0.071418926 -0.06930091 -0.019414745
0.009155581 0.027863435 0.006630112 -0.04183162 -0.0031836831 0.011652226 0.021369813 -0.030733895
0.014982621 -0.014321397 -0.007244274 0.005674346 -0.012102583 0.025299814 0.033557296 0.03384006
-0.0076486026 -0.029597536 -0.015142576 0.04710152 0.0070801727 -0.004021409 -0.046230417 0.025477346
-0.02225021 0.0017827319 0.024627116 -0.01574492 0.021629255 -0.0015680391 0.015054492 -0.009093935
-0.0316093 -0.0027364409 -0.021408608 0.008777917 0.033698466 0.019135565 0.0014831531 0.0073289266
-0.008893354 0.015836507 0.019309165 0.04889425 -0.018160217 -0.0095738005 0.0099698985 -0.028244646
0.0053076036 0.038779974 0.02604076 -0.042763915 0.03140293 0.018286621 -0.041032057 -0.010396927
-0.010211761 0.010390243 0.04800272 -0.011765058 -0.04155542 0.028601058 -0.021357926 0.03416282
-0.03389959 -0.021354172 -0.02354884 0.018350203 0.013448268 -0.015686704 -0.028459227 -0.00636859
-0.054876514 0.029650988 0.04406382 -0.013802026 -0.039921526 -0.0025483358 -0.010286065 -0.023886837
-0.0076867016 0.0017548515 0.015193985 -0.019388318 0.0054423306 0.04169505 -0.007519567 0.006395468
-0.04517557 0.0020291747 -0.012109138 -0.008930991 -0.02890046 -0.05453606 -0.031982236 -0.0028825486
0.046528928 -0.009470369 -0.002583379 -0.028295565 -0.018313682 0.016938308 0.016082171 0.024193645
0.019567365 0.0076505067 0.007675025 -0.0028209172 -0.021722486 0.05214251 -0.0012055254 0.028788134
0.0033592412 -0.023996469 0.006923517 0.040104497 -0.037228394 -0.044550795 -0.0131977135 0.03345042
0.0136709 0.020368563 -0.0003192318 -0.007349927 0.019759228 0.045153216 -0.004472397 -0.011829571
0.025983639 0.0260567 0.06555514 -0.005802758 -0.009827927 0.009679727 -0.0614041 -0.4559588
-0.048624575 0.026855245 -0.0701901 -0.3339664 -0.017085355 0.052653432 0.06724398 -0.06616764
0.049678817 0.008758284 -0.031574186 -0.02697197 0.062255368 0.04574295 0.026628308 0.06353405
-0.030556746 -0.054866128 0.015915789 -0.067441754 -0.066872336 -0.016475488 -0.012125298 0.060464367
-0.052641768 -0.07291789 0.024702266 0.042062268 0.0021172315 0.004709989 -0.04886471 -0.01097399
-0.054247886 -0.041384447 -0.031115748 -0.019221447 0.0327795 -0.06019545 -0.05943206 -0.015479598
-0.058599085 0.05725023 -0.03310063 -0.07083692 -0.06526936 0.0023433343 -0.050152276 -0.017748743
-0.0067859096 0.06781229 -0.02084503 -0.0033127302 -0.02587463 0.027947452 0.016271882 -0.046773106
0.007992871 -0.024099119 -0.053365257 -0.022266872 -0.02157976 0.0052505103 0.030501058 0.05316983

bias f4 [3]
00000000: b212 553f 2ed4 44bf e465 77be
0.8323165 -0.7688626 -0.24159962
