Netz - alt mnit fehlern.pt (torch_old, 116250 bytes, 4 tensors)

weight f4 [128, 184]
0	0xbd0e1c84	-0.034695163
1	0xbcf1e5bb	-0.02952849
2	0x3e0dd28d	0.1384985
3	0xbd797a14	-0.06090744
4	0xbd269888	-0.04067281
5	0x3d650060	0.05590856
6	0xbd180f78	-0.037124127
7	0x3d8bb8ef	0.06822383
8	0xbd2cc27f	-0.042177673
9	0xbc1baa80	-0.0095011
10	0xbbd30d40	-0.0064407885
11	0x3d61e480	0.055149555
12	0xbd12358f	-0.03569561
13	0x3d8a1cd0	0.06743777
14	0x3c43e9f0	0.0119576305
15	0x3d002fe8	0.031295687
16	0x3d34bc38	0.044124812
17	0xbd2efc8b	-0.042721312
18	0x3d82aaca	0.06380232
19	0xbc03f3b1	-0.008053706
20	0x3dab6c89	0.08370311
21	0x3d616404	0.055027023
22	0xbd18e6d1	-0.0373295
23	0x3d69a2b4	0.05703993
24	0xbd7a6a7b	-0.061136704
25	0x3cad5af4	0.021161534
26	0x3d643ff8	0.055725068
27	0x3b9fa440	0.004871875
28	0x3d225a0e	0.039636664
29	0x3d649db3	0.055814456
30	0x3d43813b	0.047730666
31	0x3d374954	0.044747666
32	0xbd8cec4c	-0.068810076
33	0xbd444ee3	-0.047926795
34	0xbc0fa8f0	-0.008768305
35	0xbc666eac	-0.014064472
36	0xbc437e30	-0.011931941
37	0x3cb52338	0.02211152
38	0x3d8b3422	0.06797053
39	0x3c8edd54	0.017439522
40	0x3d8660f8	0.06561464
41	0xbd5e349c	-0.05424939
42	0x3d8b43b4	0.06800023
43	0x3d41518e	0.047196917
44	0xbc747c28	-0.014922179
45	0x3d5834f0	0.05278486
46	0x3c95ac8c	0.018270753
47	0xbd73c155	-0.059510548
48	0xbd0a7464	-0.033802405
49	0xbd45208e	-0.04812675
50	0xbd7da758	-0.06192717
51	0x3bd6d380	0.0065559745
52	0xbc00f2b8	-0.007870369
53	0xbcba70ee	-0.022758927
54	0x3d107d08	0.03527549
55	0xbc46c6eb	-0.012132387
56	0xbba9dbc9	-0.005183671
57	0xbcbd22c6	-0.02308787
58	0x3d8c6e59	0.06856985
59	0xbd85d8f3	-0.065355204
60	0xbd85249d	-0.06501124
61	0xbd70a5eb	-0.05875198
62	0xbd4689ad	-0.04847114
63	0xbcdbe82f	-0.026844112
64	0x3c6cda50	0.014456347
65	0x3d09eb09	0.033671413
66	0x3d4d6c94	0.050152376
67	0xbcb050c7	-0.021522893
68	0xbd90a4e8	-0.07062703
69	0x3d71c6c9	0.059027467
70	0x3d8a2847	0.067459635
71	0xbd032156	-0.032014214
72	0x3ca426c0	0.020038009
73	0x3c8053fc	0.015665047
74	0xbd6e92fe	-0.05824565
75	0xbd257ddc	-0.040403232
76	0x3d5722ee	0.052523546
77	0xbb746f2a	-0.0037297704
78	0xbd8dc971	-0.069231875
79	0x3ca16638	0.019702062
80	0x3d685b84	0.0567279
81	0x3d26f510	0.040761054
82	0xbbad72a1	-0.005293206
83	0x3d2c7da7	0.04211202
84	0x3d05b8b7	0.03264686
85	0x3d0d436b	0.034488123
86	0xbd662d16	-0.05619534
87	0x3d7f012c	0.062256977
88	0x3d880273	0.06641092
89	0x3cc53774	0.024074294
90	0x3d9482a6	0.07251482
91	0xbc70cdfc	-0.014697548
92	0xbcd7dd0b	-0.026350519
93	0xbd4c7f71	-0.049926225
94	0xbd869bf2	-0.06572713
95	0xbd61d005	-0.055130024
96	0xbd791006	-0.060806297
97	0x3ce9a411	0.028520616
98	0x3d8189a7	0.06325083
99	0xbd5e3c10	-0.0542565
100	0xbce54941	-0.027989032
101	0x3cfaa72b	0.03059729
102	0xbd276be7	-0.040874388
103	0x3d842fc1	0.06454421
104	0xbd4abc91	-0.049496237
105	0x3c744c37	0.014910749
106	0xbd7ee6b1	-0.062231723
107	0x3d2b9b8e	0.041896395
108	0xbd7beca4	-0.061504975
109	0x3d81c494	0.063363224
110	0xbd845980	-0.06462383
111	0xbd954e67	-0.07290345
112	0xbd7a02ed	-0.061037946
113	0xbd0d0221	-0.03442586
114	0xbc211a1f	-0.009832888
115	0xbd815ee0	-0.06316924
116	0x3d9fa4be	0.07795094
117	0x3d31a883	0.043373596
118	0xbcd6b531	-0.026209446
119	0xbd1edfcb	-0.038787644
120	0xbbcf6495	-0.006329129
121	0xbd1b3dd3	-0.037900757
122	0x3d86f068	0.065888226
123	0x3b30cd25	0.0026977744
124	0x3d71e99a	0.05906067
125	0xbd6e72ff	-0.058215138
126	0x3d52c39e	0.051456086
127	0x3d92e9ea	0.07173522
128	0xbcf4e17f	-0.029892681
129	0x3923bbd2	0.0001561486
130	0x3c33c676	0.01097261
131	0x3cbe008e	0.023193624
132	0xbd4e8fa1	-0.050429944
133	0x3d93bc2d	0.07213626
134	0x3cb23ec9	0.021758454
135	0x3d377850	0.044792473
136	0xbcae4b1d	-0.021276051
137	0x3b69f185	0.0035696935
138	0x3d33f3b1	0.043933574
139	0xbd616062	-0.05502356
140	0x3c81de26	0.015852999
141	0xbcdb878e	-0.026798036
142	0x3dadf9c7	0.08494907
143	0x3ccdd294	0.025124826
144	0x3d13dc92	0.036099024
145	0xbd4b40d8	-0.049622387
146	0xbd7218ac	-0.05910556
147	0x3d853456	0.06504123
148	0xbd1020a7	-0.03518739
149	0xbabec0ae	-0.0014553273
150	0xbb0e493c	-0.0021711132
151	0x3d517940	0.051141024
152	0xbd769a9e	-0.06020605
153	0x3c9d2709	0.019183652
154	0xbcd5697d	-0.026051277
155	0x3c909192	0.017647538
156	0x3ca12af0	0.019673795
157	0xbce395a5	-0.027781317
158	0x3d42376a	0.04741613
159	0xbd1bc48e	-0.038029246
160	0xbce85e2e	-0.02836522
161	0xbc55cf67	-0.013049937
162	0x3c19b390	0.00938119
163	0xbd05fbbd	-0.03271078
164	0xbcd0b688	-0.025477663
165	0x3c929f80	0.017898321
166	0xbbe65f32	-0.007030391
167	0x3d9d2066	0.07672195
168	0xbd1d095f	-0.038339015
169	0x3d6493d4	0.055805042
170	0x3d4f3a08	0.050592452
171	0xbcabe5ef	-0.020983664
172	0xbd8211a7	-0.06351023
173	0x3da1c4aa	0.07898839
174	0xbd5707c8	-0.052497655
175	0x3cf9d1f3	0.03049562
176	0xbd1d10e1	-0.038346175
177	0xbd959dd6	-0.073054954
178	0x3bea8dc5	0.0071580135
179	0xbd6b236c	-0.057406828
180	0xbd291955	-0.041283924
181	0xbcc6b48d	-0.024256015
182	0x3d3f24cd	0.046665955
183	0xbb5960e0	-0.0033169314
184	0x3c2400e0	0.010009974
185	0xbd873d21	-0.06603456
186	0x3d1781a3	0.036988866
187	0xbc997e0e	-0.018736865
188	0xbd828432	-0.063728705
189	0x3d0f5582	0.034993656
190	0xbd8ec4f4	-0.069711596
191	0x3d8a9ddc	0.067683905
192	0x3d64fe2e	0.055906467
193	0x3d8df816	0.06932084
194	0x3d93c126	0.072145745
195	0x3d1da466	0.03848686
196	0x3bc69f10	0.006061442
197	0x3cb4d750	0.022075325
198	0x3d3ba394	0.045810297
199	0xbc4ce5e0	-0.012505978
200	0xbd8f599b	-0.06999513
201	0x3d4f586b	0.05062143
202	0xbc2b6033	-0.010459947
203	0x3d62b60f	0.055349406
204	0xbc9aad5f	-0.018881498
205	0xbc96a020	-0.0183869
206	0x3ced5984	0.028973348
207	0xbd65117b	-0.055924874
208	0xbc865c12	-0.016401324
209	0xbcf5b350	-0.02999273
210	0xbc7910e8	-0.015201785
211	0x3c5080e8	0.012726046
212	0xbc787184	-0.015163783
213	0x3d826871	0.06367577
214	0x3c757a33	0.014982748
215	0x3c8c007c	0.017090075
216	0x3c9f3e48	0.019438878
217	0xbd2068d6	-0.03916248
218	0x3d55bd98	0.052182764
219	0x3bbfd680	0.005854428
220	0x3d767000	0.060165405
221	0x3cf997bc	0.03046786
222	0x3cc216e8	0.023692563
223	0xbd695a78	-0.056971043
224	0xbd6ea57a	-0.05826328
225	0xbd5d2f84	-0.054000393
226	0x3d252056	0.04031404
227	0x3cf2aa78	0.029622301
228	0x3d7ffab4	0.06249495
229	0xbbd94e70	-0.006631665
230	0xbd230daa	-0.039807953
231	0xbd09b649	-0.033621106
232	0x3d49b5b4	0.04924555
233	0xbd4dbaaa	-0.050226845
234	0x3d48b300	0.048998833
235	0xbd0fc8a0	-0.03510344
236	0x3d70faac	0.05883281
237	0x3d0b8124	0.034058705
238	0x3d19e706	0.037573837
239	0x3c94633a	0.018113721
240	0x3c7f6434	0.015587855
241	0x3c241160	0.010013908
242	0x3b8f3fb6	0.0043716086
243	0xbd1a2ded	-0.037641454
244	0xbd2b2f45	-0.041793127
245	0xbd8026b1	-0.0625738
246	0xbd5248f5	-0.05133911
247	0x3d73bf7f	0.059508797
248	0xbc8b281c	-0.0169869
249	0xbccc9f62	-0.024978343
250	0x3d89c798	0.067275226
251	0x3d1fb04d	0.038986493
252	0x3d370b04	0.04468824
253	0x3cb2ee26	0.021842074
254	0x3cef5b00	0.029218197
255	0x3d50ffa6	0.051025055

bias f4 [128]
0	0x3e2bae3e	0.16765687
1	0x3db59fa8	0.08868343
2	0xbac543d5	-0.0015050123
3	0x3d0e4249	0.034731183
4	0xbdce5431	-0.10074652
5	0xbda50577	-0.08057683
6	0x3dcb292b	0.099199615
7	0x3d3a2ca9	0.045452747
8	0xbcba62ab	-0.022752127
9	0xbd15f9c9	-0.036615167
10	0xbd36f93f	-0.044671293
11	0xbd88a2f1	-0.066717036
12	0x3ae6412f	0.0017567034
13	0x3e028e60	0.12749624
14	0xbd213bc1	-0.039363626
15	0xbca9fd6a	-0.02075072
16	0x3dea7efe	0.11450003
17	0xbd689410	-0.05678183
18	0xbd7aa4e4	-0.06119241
19	0xbe034ed2	-0.12823036
20	0x3df4750b	0.11936387
21	0x3d9af9ab	0.07567152
22	0x3b8ef22b	0.0043623648
23	0xbd5218fa	-0.05129335
24	0xbddbd7f7	-0.107345514
25	0x3db0b780	0.0862875
26	0xbd553f6a	-0.05206243
27	0xbc54a422	-0.012978585
28	0x3d32c73c	0.043647036
29	0x3db36101	0.087587364
30	0x3da82e10	0.08211911
31	0x3d88ad98	0.066737354
32	0x3c50206d	0.012703043
33	0x3d00b298	0.03142032
34	0x3d772ec9	0.060347352
35	0xbcd04ce8	-0.025427297
36	0xbe1c0146	-0.15234861
37	0xbd9d873d	-0.0769181
38	0xbdfa6ffc	-0.122283906
39	0x3c2b1c75	0.010443796
40	0x3d4be054	0.049774483
41	0xbdbe2d9b	-0.09286042
42	0x3d977f1e	0.073972926
43	0x3dfa9664	0.12235716
44	0x3d2ddbb4	0.042445853
45	0x3d72387b	0.059135895
46	0xbdbe5804	-0.092941314
47	0x3d6b6996	0.05747374
48	0xbc3a0030	-0.011352584
49	0x3d3a7034	0.04551716
50	0x3de17a2f	0.11009633
51	0xbdf3bb8b	-0.11901005
52	0x3d916f36	0.0710129
53	0x3dbbdaae	0.09172569
54	0xbbd21816	-0.0064115627
55	0xbca42cef	-0.020040957
56	0xbdd2883c	-0.10279891
57	0xbdf7ac43	-0.12093403
58	0x3d27d743	0.040976774
59	0xbca5bfd0	-0.020233065
60	0x3d847504	0.064676315
61	0x3d255d28	0.040372044
62	0xbdb21888	-0.08696085
63	0x3df9e654	0.12202135
64	0x3d9ed86b	0.07756122
65	0xbdde5202	-0.108554855
66	0x3da9b7ce	0.08287011
67	0x3da33c7a	0.07970519
68	0x3de3360a	0.110942915
69	0xbdc137b1	-0.094344504
70	0x3dd3839f	0.10327839
71	0x3ce7fb96	0.028318208
72	0xbd8c63f5	-0.06855003
73	0x3bba221d	0.005680336
74	0xbdca0764	-0.09864691
75	0xbd870e4f	-0.06594526
76	0xbd87a44e	-0.066231355
77	0x3d761911	0.0600825
78	0xbc9fe6ae	-0.019519176
79	0x3c8d2c33	0.01723299
80	0x3d9908e6	0.074724
81	0x3dc62d5f	0.096766226
82	0x3ad7c72c	0.0016462556
83	0xbcea536b	-0.02860423
84	0xbcd29ab2	-0.02570853
85	0x3d663651	0.056204144
86	0x3dd91f5e	0.10601686
87	0x3c85ee49	0.016348975
88	0xbdb1f97d	-0.08690164
89	0xbd5775c5	-0.05260255
90	0x3de876c7	0.1135078
91	0x3d815629	0.06315262
92	0xbdbbfce7	-0.09179097
93	0x3ac5a59a	0.001507926
94	0xbdb876bf	-0.09007024
95	0x3c0d8960	0.00863871
96	0xbb9a362a	-0.004706164
97	0x3d9d7a6b	0.07689365
98	0x3d401f2c	0.046904728
99	0x3c8106c6	0.0157503
100	0x3d14cc51	0.036327664
101	0xbd3e899f	-0.046517964
102	0x3db32ca2	0.087487474
103	0x3d14a688	0.03629163
104	0xbd6356a0	-0.055502534
105	0x3d5ec8fb	0.05439089
106	0xbc3b8db1	-0.011447356
107	0x3dac94ea	0.084268406
108	0xbdbc14b0	-0.09183633
109	0xbe0fa896	-0.14029154
110	0xbbdc12e1	-0.0067161177
111	0x3dc545ea	0.09632476
112	0x3d134d9e	0.035962693
113	0x3dd4478b	0.10365208
114	0x3e37e520	0.17958498
115	0x3ce08c23	0.027410572
116	0x3d4c2a24	0.049844876
117	0x3d906bc3	0.07051804
118	0xbdd47745	-0.10374311
119	0x3bbeea81	0.005826295
120	0x3c743223	0.014904532
121	0x3d07368b	0.033011
122	0x3cf44a1b	0.029820492
123	0xbcb1c24f	-0.021699099
124	0xbe056ffd	-0.13031001
125	0xbd8740d2	-0.0660416
126	0x3ddd6b20	0.10811448
127	0x3bf1d6e7	0.0073803547

weight f4 [21, 184]
0	0x3cb86e44	0.022513516
1	0xbd1a4984	-0.037667766
2	0xbd8b95ad	-0.06815658
3	0x3d7c9280	0.06166315
4	0xbd2ea3b0	-0.042636573
5	0x3cd975f0	0.026545495
6	0x39b27900	0.00034040958
7	0x3f83ee92	1.0307181
8	0xbd6f12a1	-0.058367375
9	0xbd0ce4dd	-0.03439795
10	0x3a440080	0.0007476881
11	0xbe427b02	-0.18992236
12	0xbc62fae8	-0.013853766
13	0xbd77ccd4	-0.060498074
14	0xbc1e2318	-0.009651922
15	0x3c3ffa18	0.011717342
16	0x3b279360	0.002557002
17	0x3d87d7a0	0.06632924
18	0x3d39423c	0.04522918
19	0x3c2df150	0.010616615
20	0x3cf70fd4	0.030158915
21	0xbd69a2de	-0.057040088
22	0xbb484ae0	-0.0030562207
23	0xbd34fec4	-0.044188276
24	0xbc116b80	-0.008875728
25	0xbd8bf904	-0.06834605
26	0x3d646b7c	0.055766568
27	0xb8ea3000	-0.0001116693
28	0xbc4958e4	-0.01228926
29	0xb9df6600	-0.0004260987
30	0xbce316b8	-0.027720794
31	0x3d3c008a	0.04589895
32	0xbd3409f3	-0.0439548
33	0x3d80d3e2	0.062904134
34	0xbd90bea2	-0.0706761
35	0xbb94b4f0	-0.004538171
36	0x3c73e230	0.01488547
37	0xbbffe620	-0.0078094155
38	0x3d681f3c	0.056670412
39	0x3d2aa120	0.041657567
40	0x3cb54cbc	0.022131316
41	0xbd965268	-0.073399365
42	0xbd250828	-0.04029098
43	0xbd85f806	-0.06541447
44	0xbd818630	-0.06324422
45	0x3ad3eec0	0.0016169176
46	0xbd273eaf	-0.040831264
47	0x3d18fa98	0.03734836
48	0x3a507a00	0.000795275
49	0xbd1c5c7b	-0.038174134
50	0xbc6fc280	-0.014633775
51	0xbca809cc	-0.020512484
52	0xbcad52b4	-0.0211576
53	0x3c33fa80	0.010985017
54	0x3cdebba4	0.027189083
55	0xbbd16a20	-0.006390825
56	0x3e891af0	0.26778364
57	0x3e1eb5b4	0.15499002
58	0xbd9abc8e	-0.07555495
59	0x3e452aa9	0.19254555
60	0xbda959d2	-0.08269085
61	0x3d949f3a	0.072569326
62	0x3d615436	0.05501195
63	0x3ea226b2	0.31670147
64	0xbe67e1d7	-0.22644745
65	0x3c109299	0.008824014
66	0xbdf00c5b	-0.117211066
67	0x3d841bcb	0.064506136
68	0x3d018377	0.031619515
69	0x3eaac265	0.33351436
70	0x3d99a518	0.07502192
71	0xbdd39abf	-0.1033225
72	0x3e979d4a	0.2961219
73	0xbd256b76	-0.040385686
74	0x3dbb60da	0.09149332
75	0xbe6d5575	-0.2317713
76	0x3ec959b5	0.39326254
77	0xbbb40665	-0.0054939264
78	0x3dd91699	0.10600013
79	0xbd3b563a	-0.04573653
80	0xbe921fa3	-0.28539762
81	0x3e4a5272	0.19758013
82	0xbb635260	-0.003468655
83	0x3e13a712	0.14419201
84	0x3cb0430f	0.021516351
85	0x3dd1190a	0.10209854
86	0x3e74c16a	0.23901907
87	0xbbb84d83	-0.0056244745
88	0xbdf36d0e	-0.11886035
89	0x3d9dfa60	0.07713771
90	0x3e71d64f	0.23616908
91	0x3d988269	0.07446749
92	0xbec90c07	-0.3926699
93	0x3e33d686	0.17562303
94	0xbe810637	-0.25200054
95	0x3e1419a6	0.14462909
96	0xbd94c456	-0.072640106
97	0xbc96097e	-0.018315073
98	0x3d9210b9	0.07132096
99	0x3e16ee75	0.14739402
100	0x3e034d74	0.12822515
101	0x3e358860	0.17727804
102	0x3df36993	0.11885371
103	0xbe2db96b	-0.16965263
104	0x3deb5581	0.11490918
105	0x3e9a8321	0.30178168
106	0x3e2699c4	0.16269594
107	0xbebe76ae	-0.3719992
108	0x3e2a1aec	0.16611832
109	0x3e13cb3c	0.14432997
110	0xbdfe8aa3	-0.124287866
111	0x3daa8cd6	0.083276436
112	0xbecb2cb7	-0.39682552
113	0xbea5cc7f	-0.3238258
114	0xbdcd8b85	-0.10036377
115	0xbe2155a0	-0.1575532
116	0x3cf87786	0.03033043
117	0xbc754a48	-0.014971323
118	0xbe4fb33b	-0.20283215
119	0x3dd52540	0.104074955
120	0xbceb2108	-0.028702274
121	0xbd8310be	-0.06399678
122	0x3e5e8332	0.21729735
123	0x3e6419d2	0.22275475
124	0x3de96cee	0.1139773
125	0x3e12ed0f	0.14348243
126	0x3ea9d744	0.33172047
127	0x3e1e66f5	0.15468962
128	0xbe3036aa	-0.17208353
129	0x3d0100cd	0.031494904
130	0xbd579c7c	-0.05263947
131	0x3d96aed1	0.07357562
132	0xbdd46b5a	-0.10372038
133	0xbd066b76	-0.032817326
134	0xbe6bcbb4	-0.23026925
135	0x3e7a0a71	0.24418046
136	0x3e261610	0.16219354
137	0xbc87e5d9	-0.016589092
138	0xbe548db2	-0.20757177
139	0x3e01d7d4	0.12679988
140	0xbda70dc8	-0.081569254
141	0x3dc3db9b	0.09563371
142	0x3ea219b1	0.31660226
143	0x3d9190c8	0.07107693
144	0xbe6b654b	-0.22987859
145	0xbdb15103	-0.0865803
146	0x3e80d5ba	0.2516306
147	0x3e05df69	0.13073505
148	0xbe5cfb3f	-0.21580218
149	0x3dbd48ef	0.092424266
150	0xbd84b691	-0.06480134
151	0xbdc9f944	-0.09861997
152	0xbd540b28	-0.051768452
153	0xbdcfa2d3	-0.10138478
154	0xbe32df1a	-0.17467919
155	0xbe4cc455	-0.1999677
156	0x3dc4ef32	0.096159354
157	0x3e12f68d	0.14351864
158	0x3e7635ac	0.24043912
159	0x3d423b6d	0.047419954
160	0xbd814cef	-0.06313502
161	0x3e34a514	0.17641097
162	0x3ca6e7dc	0.020374231
163	0x3d752dce	0.059858136
164	0xbe7025be	-0.23451898
165	0xbde46ac3	-0.11153176
166	0x3e31310a	0.17303863
167	0x3d66d5ec	0.056356356
168	0x3e910791	0.28326085
169	0x3d15227e	0.036409847
170	0x3e0bebe9	0.13664211
171	0x3d1cedc4	0.03831269
172	0x3e81e99b	0.2537354
173	0x3d053f2a	0.03253094
174	0xbdf71a0f	-0.12065517
175	0x3ccf0035	0.025268653
176	0xbd4b9938	-0.049706668
177	0x3dd98cce	0.106225595
178	0x3e15c00c	0.14624041
179	0x3e7e8691	0.2485602
180	0xbdb598c1	-0.08867026
181	0xbb68c3d9	-0.0035517125
182	0x3d60397a	0.054742314
183	0x3e8ceb5a	0.2752331
184	0xbc123dc0	-0.008925855
185	0x3c5db3b0	0.01353161
186	0xbd85afc4	-0.06527665
187	0xbc082c18	-0.008311294
188	0xbd742566	-0.05960598
189	0xbd90c433	-0.07068672
190	0xbd53911b	-0.051652055
191	0x3e2f1bc2	0.17100433
192	0x3d01fe3e	0.031736605
193	0xbd66d158	-0.05635199
194	0xbcd79900	-0.026318073
195	0xbd8a5e9c	-0.067563266
196	0xbc961fb4	-0.018325664
197	0xbd0dc450	-0.034611046
198	0xbd3e2d11	-0.046429697
199	0xb9d6d600	-0.00040976703
200	0xba83afc0	-0.0010046884
201	0xbd29a9bc	-0.041421637
202	0xbd2b1487	-0.041767623
203	0xbd381fc4	-0.04495217
204	0x3d836c78	0.06417173
205	0x3d0653a6	0.032794617
206	0x3d5407a8	0.051765114
207	0xbd042b57	-0.032267895
208	0xbd95f6be	-0.07322453
209	0x3d773934	0.060357288
210	0x3d819ffe	0.06329344
211	0x3d548208	0.05188182
212	0xbd89cbfc	-0.0672836
213	0xbcec7ee0	-0.028869092
214	0xbbf59030	-0.007493995
215	0x3cd59890	0.026073724
216	0xbd4f674e	-0.05063563
217	0x3ce04954	0.027378716
218	0xbd8456f0	-0.064618945
219	0x3cd6b8b4	0.02621112
220	0xbd0efb55	-0.034907658
221	0xbd482ccc	-0.048870847
222	0x3d7b39d8	0.06133446
223	0xbc3c1194	-0.0114788
224	0x3d5212a8	0.051287323
225	0xbd1893e4	-0.037250414
226	0x3d52bc28	0.05144897
227	0xbce7011c	-0.028198771
228	0x3d963e7e	0.07336138
229	0x3c60fdf8	0.013732426
230	0xbc1bbbb8	-0.009505205
231	0x3a6d9200	0.0009062588
232	0x3d323664	0.043508902
233	0xbc6685dc	-0.0140700005
234	0x3d41b314	0.047289923
235	0x3c0fab78	0.008768909
236	0x3d8406e4	0.06446627
237	0xbd63c71e	-0.055609815
238	0x3d90126e	0.07034765
239	0xbd6b3b1e	-0.057429425
240	0x3e7ef1ce	0.24896929
241	0x3e1e9bb1	0.15489079
242	0xbd7e82fe	-0.062136643
243	0x3e371db7	0.17882429
244	0xbda8dea7	-0.082455926
245	0x3ded2053	0.11578431
246	0x3d203413	0.03911216
247	0x3e8812ad	0.26576748
248	0xbe820787	-0.25396368
249	0x3d86709e	0.06564449
250	0xbde9e177	-0.11419957
251	0x3da0f808	0.07859808
252	0x3d20d66f	0.039267
253	0x3e90fec0	0.2831936
254	0x3de57416	0.11203782
255	0xbdb1d373	-0.08682909

bias f4 [21]
0	0x3f6409c1	0.89077383
1	0x3dcd4681	0.10023213
2	0x3e9f69bc	0.31135356
3	0xbdb2bb4d	-0.08727131
4	0xbe0f8078	-0.1401385
5	0xbd86486f	-0.06556784
6	0xbd5f312c	-0.054490253
7	0xbd7cf1b3	-0.06175394
8	0xbd06c374	-0.032901242
9	0xbe243406	-0.1603547
10	0xbdb6fc24	-0.08934811
11	0xbd638326	-0.055544995
12	0xbe21d091	-0.15802218
13	0xbdb446ea	-0.08802588
14	0xbd86cba7	-0.06581812
15	0xbdb99474	-0.09061518
16	0xbe0f3f03	-0.13988881
17	0x3ed2bae1	0.41158202
18	0xbd65eaf8	-0.056132287
19	0xbe136622	-0.1439443
20	0xbdcb2d71	-0.09920777
