Netz.pt (torch_old, 114055 bytes, 4 tensors)

weight f4 [128, 184]
0	0x3d20fcfc	0.039303765
1	0x3cd349f9	0.025792109
2	0x3de362b5	0.11102811
3	0x3d71aa9e	0.059000604
4	0x3d4cf1e8	0.050035387
5	0xbbc382c0	-0.0059665143
6	0xbc12e620	-0.008965999
7	0xbd680d14	-0.056653097
8	0xbd22ee52	-0.03977806
9	0x3d5d9614	0.054098204
10	0xbd6bf7a0	-0.0576092
11	0x3d270c32	0.040783115
12	0x3d75ca78	0.060007542
13	0xbd913f0f	-0.070921056
14	0xbd91ad07	-0.071130805
15	0x3b5556c0	0.0032552928
16	0xbd801bc3	-0.06255295
17	0xbd7b9ba5	-0.06142773
18	0x3bb0b004	0.0053920764
19	0x3af9ec34	0.0019067586
20	0xbc31c308	-0.010849722
21	0xbd0121bd	-0.031526316
22	0xbd0cb220	-0.03434956
23	0xbd5ecf46	-0.05439689
24	0xbd49e5e0	-0.04929149
25	0x3c8627cc	0.016376399
26	0x3cae88c4	0.02130545
27	0xbd294c21	-0.041332368
28	0xbd84a1ca	-0.06476171
29	0xbca9a8ee	-0.020710435
30	0x3d103176	0.03520342
31	0xbd3a51c0	-0.04548812
32	0x3d176368	0.036960036
33	0x3d860314	0.06543556
34	0xbcfc3e28	-0.030791357
35	0xbd19bd41	-0.037534002
36	0xbd67d168	-0.05659619
37	0x3d468b18	0.048472494
38	0xbb815a20	-0.0039475113
39	0x3d43b9c2	0.047784574
40	0x3cbed014	0.023292579
41	0x3d38c8a0	0.045113206
42	0x3ce02620	0.02736193
43	0x3d7231a0	0.059129357
44	0xbc097c88	-0.008391507
45	0x3d798dd0	0.06092626
46	0xbd003886	-0.031303905
47	0xbc9a1cf2	-0.01881263
48	0x3d216df8	0.039411515
49	0xbce31fa4	-0.027725048
50	0x3b4f2160	0.0031605586
51	0xbb4fb280	-0.0031692088
52	0xbce2e072	-0.027694914
53	0x3d172920	0.036904454
54	0x3d911cc2	0.07085563
55	0xbd686af4	-0.056742623
56	0x3c8280ae	0.0159305
57	0xbb8149e1	-0.0039455746
58	0x3d41de89	0.047331367
59	0x3cdcdfa9	0.026962118
60	0x3d8f472e	0.06995998
61	0xbce3fb93	-0.02782992
62	0x3c0761cc	0.008263063
63	0xbd542e59	-0.051802013
64	0xbd812b6e	-0.06307112
65	0xbd8b7990	-0.068102956
66	0x3c2072eb	0.009793024
67	0xbc91d80c	-0.017803214
68	0x3d9aff7d	0.07568262
69	0xbae78fad	-0.001766672
70	0xbd77c60e	-0.060491614
71	0xbd852726	-0.065016076
72	0x3d2c5d0b	0.04208092
73	0x3d480b57	0.04883894
74	0xbd41b16c	-0.047288343
75	0xbd0621f9	-0.032747243
76	0x3d8608e2	0.06544663
77	0x3d2066a0	0.03916037
78	0xbd305624	-0.0430509
79	0xbaeb3c8b	-0.001794712
80	0xbb450b62	-0.00300666
81	0x3d2d5cf9	0.042324994
82	0xbcd0828b	-0.025452873
83	0xbd0c4797	-0.03424796
84	0xbd1b2d62	-0.037885077
85	0xbd3c2f67	-0.045943644
86	0x3d94f7a7	0.072737984
87	0xbd7b22e8	-0.061312586
88	0xbc490668	-0.012269594
89	0x3c203fae	0.009780807
90	0x3cf719c6	0.030163657
91	0x3d698e8e	0.057020716
92	0xbd84d047	-0.06485038
93	0x3ce2ecc6	0.027700793
94	0xbd7608d1	-0.060067
95	0xbd244669	-0.04010621
96	0xbab71fc1	-0.0013971255
97	0xbd647ed1	-0.055785004
98	0xbd4514cf	-0.048115548
99	0xbcbaa987	-0.022785915
100	0x3bf3924a	0.0074332105
101	0xbd7e573f	-0.062094923
102	0xbd2e5b4d	-0.04256754
103	0xbd8701ed	-0.06592164
104	0x3d0dad0c	0.03458886
105	0xbcde55fe	-0.027140614
106	0x3d175871	0.03694958
107	0xbd6fead3	-0.058573555
108	0xbbaef559	-0.0053393063
109	0xbd962aba	-0.07332368
110	0xbd500a9b	-0.050791364
111	0xbd575e3f	-0.052580114
112	0x3d101e52	0.035185166
113	0x3d16f492	0.036854334
114	0xbd7fd083	-0.06245471
115	0x3c88ccaa	0.016699154
116	0xbc8bae12	-0.017050777
117	0x3cdbb27f	0.026818512
118	0xbd83f9bc	-0.064441174
119	0x3c12d03b	0.008960779
120	0x3cba2289	0.022721546
121	0xbd15d72f	-0.03658217
122	0xbd566a3f	-0.052347418
123	0x3d6b5869	0.05745736
124	0xbd8132d8	-0.06308526
125	0x3cd5ca89	0.026097553
126	0x3da1032a	0.078619316
127	0xbd2bbc4f	-0.041927632
128	0xbc7a7a6a	-0.015287975
129	0xbd8459fd	-0.064624764
130	0x3c86f714	0.016475238
131	0x3d73293b	0.059365492
132	0xbd8dbc29	-0.06920654
133	0x3cdb1be6	0.026746701
134	0xbd460221	-0.048341874
135	0x3d90fae9	0.07079107
136	0xbd5f9b9b	-0.054591756
137	0x3d0d45e6	0.03449049
138	0xbd88c5a9	-0.06678326
139	0xbd3f0113	-0.046631884
140	0x3d8dd4b3	0.06925335
141	0xbd850dd1	-0.06496776
142	0x3d65445e	0.055973403
143	0xbd26de9c	-0.04073964
144	0xbc492629	-0.0122771645
145	0x3b37e370	0.0028059147
146	0x3d37fb17	0.044917192
147	0x3d779039	0.060440276
148	0x3c5eb58e	0.013593091
149	0xbbcb66f4	-0.0062073413
150	0xbd2d994f	-0.042382535
151	0xba1b71a7	-0.0005929716
152	0xbba55db0	-0.005046569
153	0xbd812c76	-0.063073084
154	0x3c9a88e5	0.018864105
155	0xbd511607	-0.051046398
156	0xbcb18498	-0.021669671
157	0x3b96d1d0	0.0046026483
158	0x3d231263	0.039812457
159	0xbd436bd3	-0.04771025
160	0xbcc03f55	-0.023467699
161	0xbd741805	-0.05959322
162	0x3cc1ab7e	0.023641344
163	0x3d9b4c5f	0.07582926
164	0x3cb6865b	0.022280863
165	0xbcbe8ea0	-0.023261368
166	0xbd498c98	-0.049206346
167	0xbd26fa58	-0.04076609
168	0xbd67eaed	-0.056620527
169	0x3d334136	0.043763362
170	0x3d8ebd51	0.06969703
171	0x3ccfb361	0.02535409
172	0xbcd51305	-0.026010046
173	0xbd80097b	-0.06251808
174	0xbc2cc663	-0.010545346
175	0xbd4a4e85	-0.04939129
176	0x3cc8a986	0.024494898
177	0x3d994a81	0.074849136
178	0xbda97aee	-0.082754
179	0xbbae92e9	-0.0053275716
180	0x3d805f28	0.062681496
181	0xbd77c9d1	-0.0604952
182	0xbd810262	-0.062992826
183	0xbcbc9045	-0.023018012
184	0xbc071fa0	-0.008247286
185	0xbd45bdc3	-0.048276674
186	0xbdbee629	-0.09321243
187	0xbd800d21	-0.06252504
188	0xbd75b5b2	-0.05998773
189	0xbc9c8ea2	-0.019110981
190	0xbd6f7390	-0.05845982
191	0x3d20d0e4	0.039261714
192	0xbcf7bf4c	-0.030242585
193	0x3d954ce6	0.07290058
194	0xbcdb2806	-0.026752483
195	0x3d5a1d18	0.053250402
196	0x3d06f07e	0.032944195
197	0x3d7e95d8	0.06215462
198	0x3cd38ac4	0.025823005
199	0xbd021cd3	-0.03176577
200	0xbd10198e	-0.03518062
201	0x3ca21846	0.019786965
202	0xbc7f79f6	-0.015593043
203	0xbd0f9719	-0.035056207
204	0xbd8df94e	-0.06932317
205	0xbce4cf34	-0.027930833
206	0x3d6ae800	0.05735016
207	0x3d92d62c	0.07169756
208	0xbcd9f3b6	-0.026605468
209	0xbd8a1a54	-0.06743303
210	0x3d6c326c	0.057665274
211	0xbd7a118c	-0.06105189
212	0xbbb49620	-0.0055110604
213	0x3b81e5f6	0.003964181
214	0xbc83c1be	-0.016083594
215	0xbcb9a9ae	-0.022663917
216	0xbd00b2ae	-0.031420402
217	0x3d39e04e	0.04537993
218	0xbc9a97ba	-0.018871177
219	0xbd69e95b	-0.05710731
220	0x3d91f740	0.07127237
221	0x3cce6b58	0.02519767
222	0x3d7e76a0	0.06212485
223	0x3d472da6	0.048627518
224	0x3d706684	0.058691517
225	0xbd969e89	-0.07354457
226	0xbd78b89d	-0.060722936
227	0x3d916124	0.07098606
228	0x3d92d4e6	0.071695134
229	0x3cde8bd4	0.027166285
230	0xbd920d31	-0.07131422
231	0x3c04f2b8	0.008114509
232	0x3d261d7e	0.04055547
233	0xbd3bcbc6	-0.04584863
234	0x3d704d14	0.058667257
235	0xbd5975bc	-0.053090796
236	0x3d966a6a	0.073445156
237	0x3c50af68	0.012737133
238	0x3c3a4098	0.011367939
239	0xbd53df95	-0.051726896
240	0x3c56df43	0.013114753
241	0xbd5202bb	-0.051272135
242	0x3ce58f1d	0.028022343
243	0x3d89b68a	0.0672427
244	0x3c83f149	0.016106265
245	0x3ce5e227	0.02806194
246	0x3d1c9bc8	0.038234502
247	0x3d1c2c04	0.038127914
248	0xbb59570a	-0.0033163452
249	0x3d36b7d2	0.0446089
250	0xbd85d1e0	-0.06534171
251	0xbd509971	-0.050927583
252	0xbd20df52	-0.039275475
253	0xbd4c4529	-0.049870644
254	0xbd893ff8	-0.06701654
255	0x3bf5321f	0.0074827815

bias f4 [128]
0	0x3c2dbadd	0.010603634
1	0xbd9330ce	-0.07187043
2	0xbd0f4a06	-0.034982704
3	0x3c77beca	0.015121171
4	0x3dba0be0	0.09084296
5	0x3df5841e	0.1198809
6	0x3d5cdcef	0.053921636
7	0xbda31fe6	-0.079650685
8	0xbc8d2159	-0.017227815
9	0x3d0158a8	0.03157869
10	0x3e0e0d95	0.13872369
11	0xbe3d0d24	-0.18462044
12	0x3d832a7a	0.06404586
13	0xbd426068	-0.04745522
14	0x3d0fe8f2	0.035134263
15	0x3c859143	0.016304618
16	0xbd5feb6b	-0.05466787
17	0x3c80f70b	0.0157428
18	0x3d381451	0.04494125
19	0xbd8ea246	-0.06964545
20	0xbc07aaa2	-0.008280428
21	0xbdd2393b	-0.10264822
22	0x3c2c1a11	0.010504262
23	0xbd1082d8	-0.035281032
24	0x3df31597	0.11869352
25	0x3da91376	0.08255665
26	0x3d7ce619	0.061742876
27	0x3d8a8b81	0.067648895
28	0xbbd93595	-0.006628702
29	0x3b832116	0.004001747
30	0x3dba674c	0.091017336
31	0xbdcfed69	-0.10152704
32	0xbd091ee8	-0.03347674
33	0x3bf1ab14	0.0073751304
34	0x3d13f12a	0.036118664
35	0xbbd6cf62	-0.0065554837
36	0x3da8fa45	0.0825086
37	0xbbe24fd1	-0.0069064875
38	0x3cfec19f	0.031098185
39	0x3d30fb89	0.043208633
40	0xbcd51915	-0.026012937
41	0x3daef033	0.08541908
42	0xbce40e39	-0.027838813
43	0x3d88c69f	0.06678509
44	0xbcba43bd	-0.022737378
45	0xbde85797	-0.113448314
46	0xbdb95fa5	-0.09051446
47	0xbc3b8977	-0.011446348
48	0x3d971bcd	0.073783495
49	0xbd969764	-0.07353094
50	0x3df6b198	0.12045592
51	0xbd55465b	-0.05206905
52	0xbdb3eda2	-0.08785559
53	0xbccda524	-0.02510316
54	0x3c21ebfc	0.009882923
55	0x3c20e484	0.009820107
56	0x3d4902f6	0.04907509
57	0xbd4e9884	-0.05043842
58	0x3e497d89	0.19676794
59	0xbd8bf49c	-0.06833765
60	0x3cb51daf	0.02210888
61	0xbe14671b	-0.14492457
62	0x3cd05efd	0.025435919
63	0xbdc30d92	-0.09524073
64	0x3c5a8b53	0.013338882
65	0x3e1b9868	0.15194857
66	0x3cb7f87e	0.022457357
67	0xbc4b454b	-0.012406657
68	0x3d6453f1	0.055744115
69	0xbcbd4752	-0.023105297
70	0x3e0faf2f	0.14031671
71	0xbd82589c	-0.06364557
72	0xbcd553c6	-0.026040923
73	0xbda8efec	-0.082488865
74	0xbc99a56d	-0.018755639
75	0x3ddd736c	0.108130306
76	0xbda0a27f	-0.07843494
77	0xbd412ea3	-0.047163617
78	0x3e07b3ad	0.13252135
79	0x3e503009	0.20330824
80	0xbdf49eb4	-0.11944333
81	0xbddc83e1	-0.107673414
82	0xbbec8074	-0.0072174612
83	0x3db2c88d	0.08729658
84	0xbd9c29dd	-0.07625172
85	0x3dd5fb4c	0.10448322
86	0xbd8d7a2e	-0.069080696
87	0xbd9a8e6e	-0.075466976
88	0xbe1fedb3	-0.15618019
89	0xbd56402a	-0.052307285
90	0xbd9e03c1	-0.0771556
91	0xbe0de4a1	-0.13856746
92	0xbd23e5b8	-0.040014
93	0xbd9b0211	-0.075687535
94	0xbbeb7a7b	-0.0071862317
95	0x3e11b8b4	0.14230615
96	0xbdb6e3c1	-0.08930159
97	0x3d6f3c6e	0.05840724
98	0x3d8f9a6d	0.07011876
99	0xbc3bd71a	-0.011464858
100	0x3bd8543e	0.0066018393
101	0x3c8cc1a0	0.017182171
102	0xbdb8f7b7	-0.09031623
103	0xbe00bd7a	-0.1257228
104	0x3d29ac70	0.041424215
105	0xbd832418	-0.06403369
106	0xbe05e5c6	-0.13075933
107	0x3db5c4fb	0.08875462
108	0x3b0cb351	0.0021469186
109	0x3de42ff7	0.11141961
110	0xbd893126	-0.066988274
111	0xbe156cd7	-0.145923
112	0xbe089cd6	-0.13341078
113	0x3d3832b9	0.044970248
114	0x3dc92d60	0.09823108
115	0x3c9178d8	0.017757818
116	0xbd7235fe	-0.059133522
117	0x3c92866b	0.017886361
118	0x3b0309c1	0.0019994827
119	0xbde177d9	-0.11009187
120	0x3e1d3ebb	0.15355961
121	0xbcd4ec0c	-0.025991462
122	0xbe3c5a8c	-0.18393916
123	0xbd0fbb9c	-0.035091028
124	0x3dd20b7f	0.10256099
125	0xbc3b3c3f	-0.011427938
126	0xbe047543	-0.12935357
127	0xbe1439d8	-0.1447519

weight f4 [18, 184]
0	0xbc953c5a	-0.018217254
1	0x3b490d20	0.003067799
2	0xbd4e23c8	-0.050327092
3	0x3c9d681c	0.019214682
4	0xbd06f562	-0.03294886
5	0xbd58faa0	-0.05297339
6	0xbd20a6ff	-0.03922176
7	0x3ecc27d1	0.39874128
8	0xbd7458bd	-0.05965494
9	0xbd0a1442	-0.033710726
10	0x3cbf8bcc	0.02338209
11	0x3dc15425	0.094398774
12	0x3d2aef46	0.041732095
13	0x3d34e1f2	0.04416079
14	0x3d90bd42	0.07067348
15	0xbd4571c2	-0.04820419
16	0x3ce12c64	0.027486987
17	0xbd7dc40c	-0.061954543
18	0xbd735d7d	-0.05941533
19	0xbb46f780	-0.0030359924
20	0x3c946690	0.018115312
21	0x3c3093f0	0.010777459
22	0xbcac3c3e	-0.02102482
23	0xbd49928c	-0.049212024
24	0x3d96ba0e	0.07359706
25	0xbd06351e	-0.0327655
26	0x3ca8ae9c	0.020591073
27	0xbd3aaa45	-0.045572538
28	0xbca37220	-0.01995188
29	0x3c96e314	0.018418826
30	0xbd942159	-0.07232923
31	0xba0b5300	-0.0005314797
32	0xbc3b0494	-0.011414666
33	0xbae8a680	-0.0017749816
34	0x3d90b0ae	0.07064949
35	0x3d4a38ea	0.049370684
36	0x3c74a148	0.014931031
37	0x3b890b70	0.0041822717
38	0x3d80c98e	0.062884435
39	0xbc491a20	-0.012274295
40	0x3d50a7c0	0.05094123
41	0x3d9051c2	0.07046844
42	0xbb4ed140	-0.0031557828
43	0x3d588dcc	0.052869603
44	0xbd3d416a	-0.04620496
45	0x3c0da780	0.008645892
46	0x3c1a3c78	0.009413831
47	0xbd710225	-0.058839936
48	0xbd8f2eda	-0.06991358
49	0x3d73828c	0.05945067
50	0x3d84da56	0.06486957
51	0xbc8438c0	-0.016140342
52	0xbd8e7657	-0.06956165
53	0xbd81486f	-0.06312644
54	0x3d651338	0.05592653
55	0xbc00a750	-0.00785239
56	0x3ddf546d	0.10904775
57	0xbcc2b389	-0.02376725
58	0x3c6b671a	0.014367843
59	0xbb9a7226	-0.0047133146
60	0x3d91db87	0.0712195
61	0x3de37f5f	0.111082785
62	0x3dd7a95b	0.10530349
63	0xbb7ae03e	-0.0038280631
64	0x3c32f003	0.010921481
65	0x3dbe8f24	0.09304646
66	0x3d03975c	0.03212677
67	0xbe4205a6	-0.18947467
68	0x3e0f9bf2	0.14024332
69	0x3c3a4e94	0.011371274
70	0xbd71eb97	-0.059062567
71	0x3daf50dc	0.085603446
72	0xbd761c40	-0.060085535
73	0x3da163be	0.078803524
74	0x3d9c965b	0.076458655
75	0xbd6bb6a9	-0.057547245
76	0xbd1e2109	-0.038605724
77	0xbc058e26	-0.008151567
78	0x3cb9f662	0.022700492
79	0x3d5fd3c0	0.0546453
80	0x3d941cc8	0.07232052
81	0xbbb9cbc3	-0.0056700422
82	0x3d295cce	0.04134827
83	0x3e0d8c51	0.13823058
84	0xbd16ba7c	-0.03679894
85	0xbd94c7a3	-0.0726464
86	0x3d6ecf64	0.05830325
87	0xbca35c16	-0.019941371
88	0xbc461a07	-0.012091166
89	0xbc95a27f	-0.01826596
90	0x3d980f1a	0.074247554
91	0xbda2cb77	-0.07948964
92	0x3d5087ed	0.05091088
93	0xbd6c6df7	-0.05772206
94	0xbdeb210b	-0.11480912
95	0x3d42f325	0.047595162
96	0x3c1d6356	0.009606203
97	0x3cd6b20c	0.026207946
98	0xbd02d219	-0.031938646
99	0xbcfb9ef0	-0.030715436
100	0x3d0a3c0b	0.033748668
101	0xbda89ee3	-0.0823343
102	0xbd686cf3	-0.056744527
103	0x3cc84aec	0.024449788
104	0x3dc680c4	0.09692529
105	0xbcd04fcd	-0.025428677
106	0x3e1ae4a6	0.15126285
107	0xbb481726	-0.0030531376
108	0xbd19fac6	-0.03759267
109	0xbb7fec1c	-0.0039050644
110	0xbc9ba88d	-0.01900127
111	0xbc81dd94	-0.015852727
112	0xbb0fc47a	-0.0021937178
113	0xbd36f2df	-0.044665214
114	0x3e099dad	0.13439055
115	0xbd79e490	-0.06100899
116	0x3d18c8bc	0.03730081
117	0xbde6c066	-0.11267166
118	0x3cbc0bfc	0.022954933
119	0xbc45ee1b	-0.012080695
120	0x3c18d45e	0.009327976
121	0x3de7efae	0.11325012
122	0x3cba4f4e	0.022742894
123	0x3d0fe5ba	0.035131194
124	0x3d0ed46f	0.03487056
125	0xbd426700	-0.04746151
126	0x3de95f84	0.11395171
127	0xbe06e9f4	-0.13175184
128	0x3d2ae414	0.04172142
129	0x3d2423d5	0.040073235
130	0xbdac6c6e	-0.08419119
131	0x3d26ab22	0.04069055
132	0xbde1303f	-0.1099553
133	0xbca7031d	-0.020387227
134	0x3e2be00f	0.1678469
135	0x3e51378f	0.2043135
136	0xbdd48f01	-0.10378838
137	0xbd95dc84	-0.07317451
138	0xbdd355c3	-0.10319092
139	0x3e06334e	0.13105509
140	0xbde77b3b	-0.11302801
141	0x3d83fe6b	0.06445011
142	0xbdc75227	-0.09732466
143	0xbdd0df43	-0.10198834
144	0xbcdcead8	-0.026967451
145	0xbc9174fb	-0.017755976
146	0xbd66b83e	-0.05632805
147	0xbdd6f8fe	-0.1049671
148	0x3cc0f468	0.023554042
149	0x3d9a7a45	0.07542852
150	0xbd1f3e2e	-0.03887766
151	0x3d8e53cc	0.06949577
152	0xbcce50a3	-0.025184935
153	0xbc8c19ec	-0.017102204
154	0x3d01b382	0.031665333
155	0x3d0bf2fa	0.034167267
156	0x3c2ba317	0.010475895
157	0x3da822e0	0.08209777
158	0xbd814273	-0.06311502
159	0xbdb5a662	-0.08869626
160	0xbc1d4947	-0.00959999
161	0xbd42df24	-0.047576085
162	0xbda1da44	-0.07902959
163	0x3d9871eb	0.07443603
164	0x3d31c6e0	0.043402553
165	0x3dc0f13c	0.09421012
166	0xb8d4277c	-0.00010116302
167	0xbd5f4263	-0.05450667
168	0xbdf4a625	-0.11945752
169	0x3c4e08d9	0.012575352
170	0x3dc1a176	0.09454624
171	0x3d695a9a	0.05697117
172	0xbd4c13e2	-0.04982365
173	0x3ce7c2aa	0.028291065
174	0xbb3a9960	-0.0028472766
175	0xbd4f7e82	-0.050657757
176	0x3e1f2849	0.15542711
177	0x3bed23a3	0.0072369142
178	0xbdcd591a	-0.100267604
179	0x3ccd60c0	0.025070548
180	0x3e114691	0.14187075
181	0x3acb4ebc	0.0015511136
182	0xbd874304	-0.06604579
183	0xbdf9dcb3	-0.12200298
184	0x3d6c5efc	0.05770777
185	0xbd34be0c	-0.044126555
186	0xbc3c53f8	-0.011494629
187	0x3c867918	0.016415164
188	0x3c484c30	0.012225196
189	0xbd58ac14	-0.05289848
190	0xbd184394	-0.037173823
191	0x3ce113c3	0.027475243
192	0xbcd2b854	-0.02572266
193	0xbd2bf624	-0.041982785
194	0xbd350bab	-0.04420058
195	0xbc0fabfa	-0.00876903
196	0xb7994000	-1.8268824e-05
197	0x3d05568a	0.032553233
198	0xbd43d2c3	-0.04780842
199	0x3d12d5bc	0.035848364
200	0x3c0c0ff0	0.008548722
201	0xbd7323fe	-0.059360497
202	0x3d6d5bfc	0.05794905
203	0xbd79810b	-0.06091408
204	0x3d8eb542	0.06968166
205	0x3d460462	0.048344024
206	0x3c9a79d0	0.018856913
207	0xbd5bc210	-0.05365187
208	0x3a5a8680	0.0008336082
209	0x3d172072	0.036896177
210	0xbc9d74dc	-0.019220762
211	0x3ce38c2c	0.0277768
212	0xbd2017c0	-0.03908515
213	0xbc863e78	-0.01638721
214	0xbc276a48	-0.0102182105
215	0xbd246fdb	-0.040145736
216	0xbcac5966	-0.021038722
217	0x3d2144be	0.0393722
218	0xbc660834	-0.014040042
219	0xbd7fded9	-0.062468383
220	0x3cfc4be8	0.030797914
221	0xbce14d98	-0.02750282
222	0xbcf98124	-0.030457087
223	0x3c427be0	0.011870354
224	0xbd8c3df6	-0.068477556
225	0xbd38c5f3	-0.045110654
226	0x3d3734c2	0.04472805
227	0x3c1ef448	0.009701796
228	0x3d2862fa	0.041110016
229	0x3d59dd60	0.053189635
230	0xbd948e7a	-0.07253738
231	0x3d4b3d70	0.04961914
232	0x3cc819c8	0.024426356
233	0xbd92d5df	-0.07169699
234	0x3abfd5c0	0.0014635846
235	0x3ca618bc	0.020275466
236	0xbd84af80	-0.064787865
237	0x3c8d72ac	0.017266594
238	0x3ba06cf0	0.004895799
239	0xbd1d0cbb	-0.03834222
240	0x3d2b2cd3	0.041790795
241	0x3c460214	0.012085456
242	0xbd2726d5	-0.040808517
243	0xbc2dce00	-0.010608196
244	0x3dc30276	0.09521954
245	0x3db6f1b9	0.08932824
246	0x3de8d461	0.11368633
247	0xbc42220d	-0.011848939
248	0x3aa66c29	0.0012697029
249	0xbc027fbf	-0.007965027
250	0x3d9c475a	0.07630797
251	0xbc3c99b3	-0.011511254
252	0x3de8b9dc	0.11363575
253	0x3d6f12e5	0.05836763
254	0x3d2ef619	0.042715166
255	0x3d819efa	0.063291505

bias f4 [18]
0	0x3ef840c8	0.48486924
1	0x3d8360c9	0.06414945
2	0x3e576813	0.21035795
3	0xbd97fa2f	-0.074207656
4	0xbd923282	-0.0713854
5	0xbcf45625	-0.029826233
6	0xbd04407a	-0.032288052
7	0xbd008fb5	-0.03138705
8	0xbdb86955	-0.090044655
9	0xbc06f241	-0.008236469
10	0xbd0546ab	-0.032538097
11	0x3c31b376	0.0108460095
12	0xbc2fd029	-0.010730782
13	0xbd3d1cde	-0.046170108
14	0xbcce63f7	-0.025194151
15	0xbd3461db	-0.044038635
16	0xbdeecc29	-0.11660034
17	0x3d119c57	0.035549488
