Netz.pt (torch_old, 123658 bytes, 4 tensors)

weight f4 [128, 184]
00000000: 32a9 a43d 5e2e 9abb 7573 213e a30e 9fbc
00000010: f6cb 753d dde4 35bd 15bb a83c a84e 853c
00000020: b571 693d f2df 3dbd 22f6 89bc 7354 b1bd
00000030: ec09 b63c 6bed a5bd 38bf 11bd 9c0e 003d
00000040: c0bc 26bc 4cf7 053d 3ef5 263c beac 3fbd
00000050: eb06 d3bd 839d 153c a2f5 8bbd 54a8 8cbd
00000060: fee9 07bd 13c0 80bd 58d9 7a3c 6810 5a3d
00000070: 7aa2 083d 5e9e 933d 7df2 5cbd f61d 97bd
00000080: 709e 16bd fbd6 09b9 b513 90bd 96fa 4bbd
00000090: 0023 b9ba 9c01 47bd 4c0e 573d 7c2e 373d
000000a0: 752b 09bd 005b e33a 65f6 02bd 12d2 833d
000000b0: 16d1 863d 1c1c ff3c fce8 7b3d 3fcb 7cbd
000000c0: fe0a 0ebd 2fd2 32bd c45b 7a3d fe01 77bd
000000d0: 1472 543d d0c8 27bc 3b2b 8cbd b0e0 61ba
000000e0: df74 30bd 2ccb 33bd 01e2 333d 55d4 2d3d
000000f0: ade9 2d3c 8bdd b73b 7526 8d3d 7a01 7a3d
00000100: fd13 8abc 1dbd ae3d 6372 aa3c b202 ab3b
00000110: c564 24bd 0fa8 38bc f48b 9dbd f439 963d
00000120: d3de af3c 82a2 5d3d 43e2 87bc a801 1b3d
00000130: 13af 76bd 0bfc 9c3c 875a 3dbd dfbb 9abc
00000140: f84b 453c f5b4 28bd 23a4 ca3c 8faf 84bd
00000150: 5b60 e73c d0ea 283d 8662 bb3b df73 213d
00000160: 58e2 853d 816f 883c 72f6 2a3c dd11 3c3d
00000170: 89aa 7b3d 4dd1 48bd 508e 5cbc 9603 31bc
00000180: 15d3 2f3d a898 893d 9184 103d 6c6b 913d
00000190: 3bdf 86bd 1d7c 633d 5e9e bebc 97a3 a8bc
000001a0: da10 433d dfd7 0bbd d13e 1d3d 3156 2f3d
000001b0: e0ec abbc 2903 863c ee9a 1ebd 775e 89bb
000001c0: 0d80 723d 7325 32bd f09b 383b 9f98 0c3c
000001d0: 5f19 91bd 6ed0 463d 1c4a 923d 1ea5 62bb
000001e0: c296 77bd 490c 813c db7b d3bc 7894 52bc
000001f0: 6a83 89bd 0b56 8abc 25c9 d9bc 648d 1d3d
00000200: 2278 d03c 1fcd ba3c ae92 b13c 989a d73d
00000210: 731d 8cbb dd3d 943d 8540 da3c ddd7 abbd
00000220: f63a 7a3d 1bd9 223c d2fd 0b3c c1ca 66bc
00000230: 743e 8d3c 7e3e a93d 12ad 01bc 42b6 ba3c
00000240: 1b1f b23d 2b4c fbbc 78da 2bbc bf5b 32bc
00000250: 6270 abbc 249a 42bc 7166 40bd cf8a 0b3d
00000260: 9e26 123d 30be 3c3d e49a 293d d628 a33d
00000270: 2392 673d d391 693d 51bf e73c b5e1 2c3c
00000280: 6fca d93c d5e1 303c 9be0 023d 2f61 8a3d
00000290: 0326 0bbd c10c 89bc 62dc dfbc 4dcb c6bc
000002a0: c655 aa3c e09f 9c3b 1176 b9bb 0a0f aebc
000002b0: d32a a2ba 42e3 43bd 09dd 37bc c902 2f3d
000002c0: f74b 203c 3e10 90bd 5fa6 653d f483 3f3d
000002d0: c866 0f3d 62e5 ef3c d546 43bd 201a 903c
000002e0: 1d95 dcbb 3bd2 73bd 36d8 2b3c b800 743d
000002f0: 0bbc c0bc b7ae 7b3d 3d48 90bd 4e63 5cb9
00000300: cc73 44bd 82b7 313d 1036 153d 689e 103d
00000310: 6697 2b3c 6948 8a3d 987b b73c 8c84 753d
00000320: d671 863d e7c9 ba3d 9ce8 243d 0cc7 9ebb
00000330: 3e1c c23c 33a7 213d 88af 91bd 94f7 6b3d
00000340: 3621 6b3d ac45 4cbd 38a8 823d f666 6abd
00000350: eb76 93bd 134d 9abd 0ee7 47bc 0d73 903d
00000360: 5836 833c 823c 0bbd f8f6 8c3d 3361 81bd
00000370: 4b14 88bd c05d a93a 6cb8 46bd ce39 113d
00000380: 0a07 e7bc 63ad 72bd 584a 0ebc 68bd 743c
00000390: de35 63bd 22b0 b4bc 1af5 d5bc 1b23 903c
000003a0: f4cc d23c f460 70bd 34b0 553d 0b6a 88bd
000003b0: fc8c 983c 80e5 203d 180c f5bc 1a4b 843d
000003c0: 2002 8e3d a582 0fbd 2858 8c3d 7d55 a83c
000003d0: 942d 3dbd 09b8 833d e76a a53d 7c09 873d
000003e0: a344 57bc 29c6 c43b f271 0bbd a93e c13c
000003f0: 702b 1e3d 3e5f 2bbd 8dd3 243d a48f 95bd
0.08040084 -0.0047052344 0.157667 -0.019416159 0.060008965 -0.044407714 0.02059702 0.016272858
0.056993205 -0.04635615 -0.016840998 -0.086586855 0.022221528 -0.081019245 -0.03558275 0.031263933
-0.010176837 0.032706544 0.010190306 -0.0467956 -0.10304054 0.009131792 -0.0683396 -0.068680435
-0.033182137 -0.06286635 0.015310608 0.053238302 0.033358075 0.072079405 -0.053942192 -0.073787615
-0.03677219 -0.00013145425 -0.07035009 -0.049799524 -0.0014124811 -0.04858552 0.05250387 0.044722065
-0.03348871 0.0017345846 -0.03197326 0.06436552 0.06582849 0.031141333 0.061501488 -0.061717268
-0.03467845 -0.043657478 0.06112267 -0.060304634 0.051866606 -0.0102407485 -0.06844183 -0.000861655
-0.043080207 -0.04389493 0.043916706 0.042438824 0.010614795 0.005611127 0.06892101 0.061036564
-0.016855234 0.08532164 0.020806497 0.005218827 -0.040135164 -0.011270537 -0.076927096 0.073352724
0.021468556 0.054110058 -0.016587382 0.037843376 -0.060225558 0.019163152 -0.04622891 -0.018888412
0.012042038 -0.0411882 0.02473647 -0.06478798 0.028244188 0.04123956 0.005718532 0.039417144
0.06537312 0.016654732 0.010434734 0.045915473 0.061441932 -0.04902773 -0.013461664 -0.010804078
0.042925913 0.0671857 0.035282675 0.07100567 -0.065855466 0.055538286 -0.023268875 -0.020585818
0.047623493 -0.034141418 0.038389985 0.042806808 -0.020986974 0.016358929 -0.03872197 -0.0041921693
0.05920415 -0.043492746 0.0028169118 0.00858131 -0.07084917 0.048538618 0.071430415 -0.003458328
-0.06044651 0.015752928 -0.025815895 -0.0128527805 -0.06714518 -0.016886732 -0.026585171 0.03846492
0.025447909 0.022802887 0.021676388 0.10527533 -0.0042759716 0.07238362 0.026642093 -0.08390782
0.061091386 0.009939457 0.008544402 -0.014086426 0.017241694 0.082638726 -0.007914798 0.022791985
0.08697339 -0.030675968 -0.010489099 -0.010886132 -0.020927612 -0.01187757 -0.046972696 0.034067925
0.03568136 0.046079814 0.04140748 0.07966773 0.05653585 0.057023834 0.028289469 0.01055186
0.026585786 0.01079603 0.03195248 0.067568175 -0.033971798 -0.016729714 -0.027326766 -0.024266863
0.020792853 0.004779801 -0.0056598266 -0.021247406 -0.0012372382 -0.04782415 -0.0112221325 0.042727266
0.009783736 -0.07034348 0.056066867 0.0467567 0.03501013 0.029284183 -0.047674973 0.017590582
-0.006731643 -0.059526663 0.01048856 0.059570998 -0.023527166 0.061445918 -0.07045028 -0.00021017829
-0.047961995 0.043387897 0.03642851 0.035307318 0.010473108 0.067520924 0.022397801 0.05994086
0.06564681 0.09120541 0.040260896 -0.0048455056 0.023695108 0.039466094 -0.07113558 0.057609156
0.05740472 -0.04987113 0.063797414 -0.057227097 -0.07200416 -0.07534232 -0.012201084 0.07053194
0.016017124 -0.03399325 0.06883043 -0.063173674 -0.066444956 0.0012921616 -0.048515722 0.035455517
-0.028201599 -0.059247386 -0.008684717 0.014937736 -0.055471294 -0.022056643 -0.02611785 0.017594865
0.025732495 -0.05868621 0.052169994 -0.06660851 0.018621914 0.03928137 -0.029912993 0.06459637
0.06933999 -0.0350367 0.06852752 0.020548576 -0.046186045 0.06431586 0.08077031 0.06593606
-0.013138923 0.006005068 -0.034044214 0.023589449 0.038615644 -0.041838877 0.040240813 -0.07302788

bias f4 [128]
00000000: db6d 1fbd 0f3d 383c 11a3 7b3d 5c5c 43bd
00000010: f8d6 85bd 2a32 05bc 3d56 37bd 237e b2bd
00000020: 63eb 2f3d 230c 0f3e f736 2c3c f9af a23d
00000030: de20 0fbe 9757 043e 074f 873d 1ccc ea3b
00000040: fdd6 bb3d 1146 6ebc b6eb 1fbd 6776 ed3d
00000050: 8832 9e3d b5f1 30bd 5bea 9c3e 522d 6abd
00000060: 6e76 593d 030b e13d aa78 8e3d fa7f 24be
00000070: adf8 4bbd a466 99bc cb23 503e 4103 6639
00000080: 94d0 2a3d a5a6 82bc cd43 34bc 9ed0 3b3d
00000090: d971 813d 199f 003d ac05 953d b73f 813d
000000a0: 6fdf 83bb b7d6 49be 3c61 133e 046c a23d
000000b0: 63b1 81bb 2d73 b2bc f062 9dbd 7ad4 b33d
000000c0: 2177 2abe a380 363e ae20 d83d ec05 1bbe
000000d0: 5419 74b9 5161 c23d aeb9 083e 681d 1bbc
000000e0: a209 9bbd 87c7 943d 2e37 343e 5960 163e
000000f0: 924e 803d 1bc3 da3d e875 ce3c bc39 acbd
00000100: 6ad0 1f3b ec8a 9cbc 1b44 90bc 636b ecbd
00000110: a7ec 043d 927b 06be 8d8c b6bc 52ba be3d
00000120: 71d0 2e3e 70db c03c 3ed5 91bd d920 c03d
00000130: 57c9 8fbc 8439 12be 5268 7fbd 3943 2ebe
00000140: ecc6 443e b096 f23d d4bb 553e 92a0 92bd
00000150: a857 893e da2d 5d3d 81a2 383e a6c5 7a3c
00000160: 0fa1 6abd 698e edbd 1fca 46be 3360 153e
00000170: 566a 92bc a3ee d73d 48f9 183d a2dd 1b3e
00000180: 6e53 0d3d 3fca b6bc 95e2 adbd a41f c7bc
00000190: e3b5 eabd beb5 713d b24e 60bc 1954 11bd
000001a0: 746e ca3b 2e65 8d3d 8c35 0e3d df8f 5c3d
000001b0: 6d1f 0a3e db9d 9c3d 54f4 ab3c 5eca f73d
000001c0: 07a9 48be 41ed fc3d ca3b bcbd e90c a7bd
000001d0: 8f79 a9bc e6cf 993d 89a3 b8bd e2bb cebc
000001e0: d4a3 193c 5b02 d03d 857f 8d3d 5b9c b9bd
000001f0: a0c5 5dbd f80c aa3d 58a5 ccbb dd7a 8ebd
-0.038923126 0.011245026 0.06143481 -0.047695503 -0.06535143 -0.008129636 -0.044759978 -0.08715465
0.04294909 0.13969474 0.0105111515 0.0794372 -0.13977382 0.12924038 0.0660687 0.007165445
0.09171865 -0.014543072 -0.03904315 0.11594849 0.07724482 -0.04319926 0.3064755 -0.057172127
0.05309146 0.109884284 0.069566086 -0.16064444 -0.049797703 -0.0187257 0.20326154 0.00021935721
0.04170282 -0.015948603 -0.011002493 0.04585325 0.06320543 0.031401727 0.072764724 0.06310981
-0.004024438 -0.19710813 0.1439256 0.079307586 -0.0039579137 -0.021783436 -0.076848865 0.08780761
-0.16647007 0.17822509 0.10553108 -0.15138978 -0.00023279089 0.09491218 0.13352081 -0.00946746
-0.07570197 0.07264619 0.17599174 0.14685191 0.06264986 0.10681745 0.025202706 -0.084094495
0.00243857 -0.019109212 -0.0176106 -0.1154392 0.03245225 -0.13133076 -0.022283817 0.093128815
0.17071702 0.023542136 -0.07120751 0.09381265 -0.017552061 -0.14279753 -0.062355347 -0.17017831
0.19216508 0.118451476 0.20872432 -0.071595326 0.2682469 0.053998806 0.1803074 0.015305912
-0.057282504 -0.11599428 -0.1941304 0.14587478 -0.01787297 0.10543563 0.037347108 0.15221265
0.034503393 -0.022313235 -0.08490483 -0.02430708 -0.114604734 0.059011213 -0.013690637 -0.035480592
0.006177718 0.06904064 0.034719035 0.053848144 0.1348855 0.07647296 0.020990528 0.12099145
-0.19595729 0.1234994 -0.09191091 -0.08156759 -0.020687846 0.075103566 -0.09015567 -0.025236074
0.009377439 0.10156699 0.06909088 -0.090630256 -0.054143548 0.08303255 -0.0062452964 -0.06957028

weight f4 [31, 184]
00000000: 94b5 083d 5c66 4ebd 6c47 6dbd f3b6 fbbd
00000010: c054 2bbc 72e3 c2bc cb6b f6bc 6a25 87be
00000020: e463 7b3d 50d3 77bc 48e9 da3c 9aff 543f
00000030: e002 febc 0802 30bd 50b7 aa3b 0057 a53b
00000040: 12e0 4a3d fa28 263d b630 d9bc 404e 33bc
00000050: fc5c 3bbd 78c3 b9bc 500d ebbc 00c3 c839
00000060: 00e2 c13c e00c 66bd 1e11 6dbd 6824 6f3d
00000070: 17cb 80bd d1f0 49bd be83 61bd ddcf 5ebd
00000080: fcbf ee3c fc7d 553d 258b 24bd ac1a 743d
00000090: fc90 273d 5251 883d 4c6d 0abd 720f 113d
000000a0: 78fd 07bd 00ab 3b3d a14b 94bd c265 8bbd
000000b0: 5482 2abd c465 ba3c aa3e a9bc 62ef 0f3d
000000c0: bc28 63bc 50bc d43b e089 19bb 7ca2 393d
000000d0: f4e6 8dbd 80c3 553c f7cd 92bd d466 51bd
000000e0: e64b 6abd 0108 29bd 3e54 ce3c 1519 973d
000000f0: 3d8b 47bd 7a5b b83c e7f8 87bd 6a9b 94bc
00000100: 507a 39bc 27bd b23d 6690 8dbc 7be3 56be
00000110: 99ed 633d 7777 023d 62ef f83d 02c1 be3d
00000120: 5540 29bd 6de0 b2bd fc56 2dbe 051b 21bd
00000130: 50a9 27bc 1c23 b5bd 0506 dd3d 6c93 02bd
00000140: 7b4f b1bd b1a5 aabb 7de9 43be d304 76bd
00000150: 0b6d bebd 4fb4 4c3e 697b 63be 1a2d 3a3e
00000160: 6b9c 1b3d 6aa0 0dbe d292 f0bd 8f9f 31be
00000170: ed99 163c 0a19 50bd 1c47 2d3b 94e2 d8bd
00000180: b5fa d9bc ec92 31bc e501 3e3e a1d4 b5bd
00000190: 4201 4d3d e0e2 ba3d 5eb2 fc3d 314e a83c
000001a0: ffe8 b7bc a98d 863d 5f6c 153e cd6c 0c3d
000001b0: 0c7f 0b3e 744a 2f3c 03b5 83bc 83a1 c53c
000001c0: 4288 fdbc cf16 5c3b 1d07 fe3d 93ab 883c
000001d0: 0e9c 303e 224f 213e cba6 dcbc 4289 353d
000001e0: b9c2 693d c347 75be 532d d93d df49 65bd
000001f0: d464 27be 8d33 ca3d 001f c63d 9670 a2bd
00000200: 78d7 a73c 09e1 b6bc 4495 95bd 7537 953c
00000210: 8ce7 dc3d 97b2 8f3d 7be7 57bd 5e4f 183d
00000220: 93d1 ac3b 9f7d dd3d d28e ac3d 0197 3b3d
00000230: 3938 2cbd d550 a43d 5199 fb3b 7315 063d
00000240: eaa9 5d3d 70a7 983d 5d97 2fbd ca44 983d
00000250: f9f0 c3bd a49d 4f3c 4171 8ebc 9ab3 373e
00000260: dfb0 80bd 99a2 86bd 3a6d 4fbe 4d77 d83d
00000270: 1bb8 e2bd d32e 41bd 550e 1b3e fbff 573d
00000280: 75dc 373d 3d5d 3c3e e80f 593d cc09 2b3e
00000290: 4e4a 99bd 201d b6bd 1cd4 fabd 876f b33c
000002a0: 0bf3 0bbe 6954 3f3e 3b3b 133e 9b4f 693d
000002b0: 83a8 983d d667 e23d 0f1a 233d d262 733c
000002c0: bd17 9dbd 5570 cf3d 5dc4 b33d 9a5a 07be
000002d0: 2490 1e3e aa94 933d 2893 7bbd 857a 353c
000002e0: 80d7 6b3d 10bb 783d c021 963c 0d4d 0cbd
000002f0: 70ca 3b3d bc76 303d cf77 6dbd 9c39 2a3e
00000300: d0d2 bebb 5013 88bd 346c 75bd 7a0f 873c
00000310: 3c20 283d 08ec 6e3d e034 0d3d f246 e1bc
00000320: d1f3 93bd de70 953d b04e 99bc 5cf3 f73c
00000330: bce1 bb3c f089 0e3c f8c6 1a3d 2613 b9bc
00000340: 885e 32bd 1444 81bc b2bd 4d3d b687 43bd
00000350: 8003 19bb b090 7cbc 2c26 623d 708e 153d
00000360: 6c04 8b3d 50e7 863c aedc 483d 44ed c7bc
00000370: b05b 003c d856 583d 48cb 103d 3a8d 91bd
00000380: 16a8 333d 76ae c2bc 1aca 403d b8fa c8bc
00000390: 94ec 8c3d 8ce0 683d d40c 1ebd 7800 4c3c
000003a0: 9a96 54bd 34c0 94bc 9648 07bd 64c1 233d
000003b0: 80e3 603d 40ad 86bd 5693 83bc 10b0 913d
000003c0: 8709 983c 7366 8ebc 1682 213c 332a 0d3b
000003d0: 75e6 47bc 369f 9ebc 12ae 58bc f9d5 283d
000003e0: c37e febb f1f7 f33d 6cca 383d 6516 c63d
000003f0: cc30 7fbc 19d4 d2bc 40f1 853c ab8a 80bc
0.03337629 -0.050390586 -0.05792944 -0.12290754 -0.010457218 -0.023790095 -0.030080697 -0.26395732
0.06137456 -0.015126064 0.026722565 0.8320252 -0.03100723 -0.042970687 0.005209841 0.0050457716
0.049530096 0.040566422 -0.026512485 -0.010943949 -0.045742974 -0.022676215 -0.028692871 0.0003829226
0.023667336 -0.056164622 -0.057877652 0.05838433 -0.06288736 -0.049301926 -0.05505728 -0.054397453
0.02914428 0.0521221 -0.04017176 0.05959575 0.040909752 0.066561356 -0.03379564 0.03541512
-0.03320071 0.045817375 -0.072409876 -0.06806518 -0.041628197 0.022753604 -0.020659763 0.035140403
-0.013864692 0.006492175 -0.0023428127 0.045320973 -0.069288164 0.013047099 -0.07168191 -0.051123455
-0.05720129 -0.0412674 0.025186654 0.07377831 -0.048716772 0.022504557 -0.06639271 -0.018140513
-0.0113206655 0.08727484 -0.017280769 -0.20985214 0.055646513 0.03185221 0.12155034 0.09314157
-0.041321117 -0.08734212 -0.16927713 -0.03933241 -0.010233238 -0.08844587 0.10792164 -0.031878874
-0.08657738 -0.0052077402 -0.19132037 -0.060063194 -0.09298142 0.19990657 -0.22215046 0.18181267
0.03799097 -0.13830724 -0.11746754 -0.17346023 0.009191972 -0.05080513 0.002644009 -0.10590091
-0.026608804 -0.010838252 0.1855541 -0.08878446 0.050050028 0.09125304 0.12338708 0.020545097
-0.022449968 0.06569988 0.14592122 0.034283448 0.13622683 0.010698903 -0.016077524 0.024124866
-0.030948762 0.003358293 0.124037005 0.016683375 0.1724703 0.15752843 -0.026935002 0.044320352
0.057070468 -0.23953156 0.10604348 -0.055978652 -0.16347057 0.09873114 0.096738815 -0.0793163
0.020488486 -0.022324102 -0.07303861 0.01821492 0.107863516 0.07016485 -0.05271099 0.037185065
0.0052740066 0.10814976 0.08425678 0.045798305 -0.042045806 0.0802323 0.007678189 0.0327353
0.05411712 0.07453811 -0.04286896 0.074349955 -0.09567446 0.012671862 -0.017387988 0.17939606
-0.062837355 -0.06573982 -0.2025651 0.1056963 -0.110702716 -0.047163796 0.15142186 0.052734356
0.04488798 0.18394943 0.052993685 0.16702956 -0.074848756 -0.08892274 -0.12247488 0.021903766
-0.13666932 0.18684544 0.14378063 0.056960683 0.07454016 0.110549614 0.039819773 0.014855104
-0.07670543 0.101288475 0.08777688 -0.13218156 0.15484673 0.0720609 -0.061419636 0.011076574
0.057578564 0.06072527 0.01832664 -0.03425317 0.045847356 0.043081984 -0.057975587 0.16623539
-0.0058234707 -0.066443086 -0.059917644 0.016486872 0.041046366 0.058330566 0.034474254 -0.02749965
-0.07224239 0.07296918 -0.018714279 0.03026741 0.022934787 0.008699879 0.037787408 -0.022592138
-0.043547183 -0.015779532 0.050229736 -0.047736846 -0.0023348033 -0.015415356 0.055212185 0.036512792
0.06787953 0.01646772 0.04903858 -0.02440513 0.00783436 0.052817196 0.035350114 -0.07107015
0.04386147 -0.02376483 0.04706774 -0.024533615 0.06881061 0.05685477 -0.038586453 0.012451284
-0.051901437 -0.018158056 -0.033028208 0.039979354 0.05490446 -0.065760136 -0.016061466 0.071136594
0.01855923 -0.017382836 0.009857675 0.0021540045 -0.012200941 -0.019363027 -0.013225095 0.041219685
-0.007766576 0.119125254 0.04511492 0.0967224 -0.015575599 -0.025735902 0.016350389 -0.015691122

bias f4 [31]
00000000: 17f0 d23e 198b 413e a3d9 bf3e cd86 dcbc
00000010: ec2a 8ebc 77b6 1a3c 6360 81bd 421b 8fbd
00000020: 9914 37bd 99ba 5939 8af8 fdbd a55b b4b6
00000030: 8e12 00bd 042b d3bd f21c ebbd cda2 a9bb
00000040: a0c3 b0bd 6b2f 323e 94b8 efbd 6269 a7bd
00000050: 1c42 25bd 5391 17bc 1dfb 98bd 0771 a73d
00000060: 46cc 2abe 1deb 213e 91c4 2bbd a637 283e
00000070: 56e9 dcbd decc fcbd cb5b c33d
0.411988 0.18900718 0.3747073 -0.026919747 -0.017354451 0.009442917 -0.063172124 -0.06987621
-0.044697378 0.00020764246 -0.12400921 -5.375087e-06 -0.031267695 -0.10310939 -0.1148013 -0.005176878
-0.086310625 0.17400901 -0.11705127 -0.08174397 -0.04034625 -0.009250957 -0.07469771 0.08175855
-0.16679487 0.15812345 -0.041935507 0.16427478 -0.10786693 -0.12343763 0.095389925
