pytorch test/meinNetz.pt (torch_old, 5280 bytes, 4 tensors)

weight f4 [10, 10]
-0.23953599 -0.06711003 0.06436524 0.08144051 0.11053735 -0.19149548 0.1947262 -0.095137134
-0.29957226 0.014498234 -0.17309837 -0.28701568 -0.1149347 -0.19781557 0.071176976 -0.095931634
-0.28908357 -0.2744851 0.20907095 -0.033967253 0.40870655 -0.06340748 -0.08449051 -0.1463587
0.18180695 -0.1799857 0.29968885 0.019481719 -0.21272509 0.2399209 0.19414064 -0.2693643
0.31425425 0.11498734 0.1367915 0.20018885 0.20436606 -0.096619725 0.17603248 -0.25335032
-0.13793723 0.06124255 0.08236611 -0.30009022 0.091409534 0.20539919 -0.15299256 0.1751838
0.21287593 -0.050823618 -0.25669083 0.28509662 -0.0034780204 0.062603205 -0.2785819 -0.30919823
0.1336976 -0.26336828 -0.12701878 0.31158838 -0.01192527 -0.17657097 0.009092212 -0.17076954
0.14958735 0.21272203 -0.055976123 -0.02857843 -0.02853005 -0.10505956 -0.26130942 0.110554874
-0.049113452 -0.06781794 -0.28883514 -0.1541951 -0.2757152 0.14826456 0.09948933 -0.23089238
0.14027002 -0.14669082 -0.11372642 0.039517462 -0.29665312 -0.27222675 0.009064376 -0.14873257
-0.13013454 -0.16767135 0.3851692 0.22131649 -0.048588306 0.2562637 0.45251173 0.3141633
-0.12531532 0.30461326 0.3668046 0.5192055
00000000: ec48 75be fc70 89bd ecd1 833d 48ca a63d
00000010: 6861 e23d 6417 44be 4e66 473e 42d7 c2bd
00000020: 8961 99be 008a 6d3c b340 31be b8f3 92be
00000030: e262 ebbd 2a90 4abe 3cc5 913d ce77 c4bd
00000040: c302 94be 5089 8cbe b216 563e 3f21 0bbd
00000050: fc41 d13e c8db 81bd 5c09 adbd 0edf 15be
00000060: 9a2b 3a3e 2c4e 38be d170 993e 2098 9f3c
00000070: 9bd4 59be d3ad 753e cecc 463e 1eea 89be
00000080: efe5 a03e 7c7e eb3d 1213 0c3e 4efe 4c3e
00000090: 5645 513e 90e0 c5bd dc41 343e 22b7 81be
000000a0: 6b3f 0dbe 78d9 7a3d 90af a83d 6da5 99be
000000b0: ec34 bb3d 2a54 523e 15aa 1cbe 6263 333e
000000c0: 26fc 593e 6d2c 50bd fb6c 83be 2ff8 913e
000000d0: 80ef 63bb 1c36 803d 49a2 8ebe 3b4f 9ebe
000000e0: 06e8 083e 35d8 86be 3611 02be 8388 9f3e
000000f0: 3562 43bc 05cf 34be 80f7 143c 36de 2ebe
00000100: 6d2d 193e ced3 593e 3847 65bd 501d eabc
00000110: dab7 e9bc 7729 d7bd 59ca 85be 986a e23d
00000120: 302b 49bd 22e4 8abd 33e2 93be 52e5 1dbe
00000130: 8b2a 8dbe aad2 173e 10c1 cb3d 0d6f 6cbe
00000140: f2a2 0f3e 1e36 16be 66e9 e8bd 10dd 213d
00000150: ebe2 97be 4e61 8bbe c082 143c 5a4d 18be
00000160: fd41 05be 0ab2 2bbe e634 c53e caa0 623e
00000170: 8804 47bd ff34 833e 9eaf e73e 03da a03e
00000180: a952 00be 45f6 9b3e d0cd bb3e a7ea 043f

bias f4 [10]
-0.21461394 -0.07810843 -0.032462552 -0.29042163 0.07088146 -0.0106529 -0.018400988 0.19468209
0.107890666 0.16581418
00000000: c2c3 5bbe 50f7 9fbd 74f7 04bd 25b2 94be
00000010: 4d2a 913d 8089 2ebc abbd 96bc be5a 473e
00000020: c8f5 dc3d 31cb 293e

weight f4 [10, 10]
-0.25550705 0.06043853 0.15076873 -0.22633448 -0.1540217 -0.010979325 0.039445013 0.2434394
0.1771374 -0.12726972 0.06942126 -0.11532339 0.11423807 -0.1957671 -0.087712035 -0.31385997
0.09774341 0.2162154 -0.2124586 0.43975106 -0.28714454 -0.23833825 0.3221599 -0.29171696
0.16782455 -0.27899516 -0.28017953 -0.049295485 0.24093404 0.37076482 0.10278824 0.22636066
0.30329183 -0.2998968 0.20720254 -0.05109611 -0.040659185 -0.2166595 -0.13107023 0.21752827
0.2835566 -0.29750627 0.16603239 -0.051734924 0.22282425 0.08463839 0.15416512 0.31348577
0.14625642 -0.019996867 0.2030712 0.0694332 0.280406 -0.22697031 0.3045356 0.00852263
-0.0982245 -0.12852834 -0.055485427 0.37826362 0.0820722 -0.1585785 -0.045220684 -0.12800246
-0.004052136 0.08897933 0.3139378 0.00022995472 -0.08897804 0.5332389 0.12692443 -0.090362094
-0.042508658 -0.11378911 -0.1503037 -0.123023435 -0.20767884 -0.07839373 0.18058938 0.32827687
-0.1888069 0.20849888 -0.15900052 -0.17275539 -0.027946757 -0.07826778 -0.27932355 0.27252898
0.1048615 -0.13576113 -0.15621534 -0.22167575 0.2555811 -0.16538082 0.09824233 -0.29970983
-0.29574668 0.02919659 -0.17385985 0.011250914
00000000: d2d1 82be 648e 773d 1e63 1a3e 3ac4 67be
00000010: ddb7 1dbe a0e2 33bc 1891 213d 2e48 793e
00000020: 8263 353e fe52 02be bc2c 8e3d ab2e ecbd
00000030: a6f5 e93d 2c77 48be 5ea2 b3bd 41b2 a0be
00000040: b22d c83d 9267 5d3e bf8e 59be 0d27 e13e
00000050: 9c04 93be f10e 74be 24f2 a43e ed5b 95be
00000060: 33da 2b3e 74d8 8ebe b173 8fbe 10ea 49bd
00000070: 6ab7 763e e3d4 bd3e a482 d23d 17cb 673e
00000080: 1149 9b3e 138c 99be e72c 543e 284a 51bd
00000090: 3f8a 26bd fddb 5dbe 4637 06be bbbf 5e3e
000000a0: 552e 913e be52 98be 6504 2a3e 00e8 53bd
000000b0: 0a2c 643e e456 ad3d 76dd 1d3e 3581 a03e
000000c0: 3ec4 153e 78d0 a3bc e6f1 4f3e fe32 8e3d
000000d0: 6091 8f3e e86a 68be 17ec 9b3e 80a2 0b3c
000000e0: ed29 c9bd ef9c 03be b044 63bd c5ab c13e
000000f0: 7815 a83d 6762 22be 5339 39bd 1413 03be
00000100: c8c7 84bb cc3a b63d 75bc a03e 0020 7139
00000110: 1e3a b6bd 5882 083f 7af8 013e c30f b9bd
00000120: 8f1d 2ebd 440a e9bd 37e9 19be b6f3 fbbd
00000130: c3a9 54be e48c a0bd 6cec 383e e813 a83e
00000140: 9956 41be bb80 553e 08d1 22be cae6 30be
00000150: 99f0 e4bc dc4a a0bd 7f03 8fbe eb88 8b3e
00000160: a0c1 d63d f704 0bbe eaf6 1fbe f8fe 62be
00000170: 87db 823e 9759 29be 4633 c93d 9173 99be
00000180: 1c6c 97be b02d ef3c 5108 32be c155 383c

bias f4 [10]
0.18095052 0.11858087 0.07961122 0.37285468 -0.1009215 0.06439512 0.019663036 0.43261454
0.35478514 -0.18914962
00000000: 184b 393e 87da f23d 350b a33d cfe6 be3e
00000010: eeaf cebd 97e1 833d 6014 a13c a77f dd3e
00000020: 66a6 b53e 70b0 41be
